model/run1/model.pth (torch_old, 6469 bytes, 30 tensors)

exp_avg f4 [8, 1]
0	0x80000004	-6e-45
1	0x9f26d857	-3.533082e-20
2	0x80000004	-6e-45
3	0xa0d6a4b0	-3.636199e-19
4	0x80000004	-6e-45
5	0x1ff24d13	1.02618495e-19
6	0xbe6e6b54	-0.2328313
7	0xbdce9a1a	-0.10087986

exp_avg_sq f4 [8, 1]
0	0x339bb1da	7.250101e-08
1	0x32fb4013	2.9249383e-08
2	0x34f7b4b1	4.6138805e-07
3	0x34696d58	2.1739595e-07
4	0x3681c75c	3.867708e-06
5	0x34ff49c8	4.7551134e-07
6	0x3ddbb2c5	0.10727457
7	0x3ca17ce4	0.019712873

exp_avg f4 [5]
0	0x339ab2f7	7.203737e-08
1	0xb4bc3722	-3.5057843e-07
2	0xc436514b	-729.2702
3	0x33d95300	1.01199475e-07
4	0xb3827e62	-6.0765856e-08

exp_avg_sq f4 [5]
0	0x2f2155b1	1.4673308e-10
1	0x2f56b973	1.9529071e-10
2	0x4901ea76	532135.4
3	0x2f209505	1.4604858e-10
4	0x2ee0e5a1	1.0227131e-10

exp_avg f4 [8, 1]
0	0xb7a62dc5	-1.9810055e-05
1	0x80000004	-6e-45
2	0xb89a868b	-7.368353e-05
3	0x80000004	-6e-45
4	0x36df3a72	6.652722e-06
5	0x80000004	-6e-45
6	0xbb729f10	-0.0037021078
7	0xbb0b48c9	-0.00212531

exp_avg_sq f4 [8, 1]
0	0x3348ca53	4.675014e-08
1	0x318d285f	4.1082298e-09
2	0x34567114	1.997144e-07
3	0x324bb135	1.1856447e-08
4	0x32c79e07	2.3238512e-08
5	0x33132f3b	3.426906e-08
6	0x37e13c62	2.6850208e-05
7	0x371520c7	8.888724e-06

exp_avg f4 [8]
0	0x80000004	-6e-45
1	0xa120f3aa	-5.4532595e-19
2	0x80000004	-6e-45
3	0xa2cc9136	-5.544806e-18
4	0x80000004	-6e-45
5	0x21d9871c	1.4740255e-18
6	0xc02af5e6	-2.6712584
7	0xbf94260d	-1.1574112

exp_avg_sq f4 [8]
0	0x3731990e	1.0585658e-05
1	0x3694164d	4.41334e-06
2	0x388c6ece	6.696359e-05
3	0x380c7bf3	3.3494038e-05
4	0x3a0f8649	0.0005475027
5	0x3894d8b6	7.0975555e-05
6	0x4161f24a	14.121653
7	0x40261863	2.5952384

exp_avg f4 [5, 4]
0	0x339a77b3	7.192957e-08
1	0xb39a93ac	-7.198045e-08
2	0xb39a75c8	-7.192608e-08
3	0x339a900d	7.1973865e-08
4	0xb4bbef07	-3.500538e-07
5	0x34bc1110	3.5030143e-07
6	0x34bbecb0	3.5003677e-07
7	0xb4bc0ca5	-3.502693e-07
8	0xc4360b40	-728.1758
9	0x44362c56	728.69275
10	0x443608ff	728.14056
11	0xc4362811	-728.62604
12	0x33d8ffc8	1.010481e-07
13	0xb3d92711	-1.0111956e-07
14	0xb3d8fd08	-1.010431e-07
15	0x33d921f3	1.0111025e-07
16	0xb3824c63	-6.0674914e-08
17	0x338263fe	6.071785e-08
18	0x33824ac9	6.0672e-08
19	0xb38260f0	-6.0712296e-08

exp_avg_sq f4 [5, 4]
0	0x2daf9bc3	1.9964369e-11
1	0x2db7a191	2.0876441e-11
2	0x2d9e9829	1.8030093e-11
3	0x2e3149f1	4.0310814e-11
4	0x2da2a0f6	1.8488749e-11
5	0x2da80eef	1.910602e-11
6	0x2d74a0ff	1.39055425e-11
7	0x2e646413	5.1930082e-11
8	0x49015dcc	529884.75
9	0x49019f63	530934.2
10	0x49015a08	529824.5
11	0x49019702	530800.1
12	0x2da7b196	1.9064566e-11
13	0x2db00946	2.0013002e-11
14	0x2d8e8d0d	1.620617e-11
15	0x2e3099bd	4.0154314e-11
16	0x2dbed8fc	2.169686e-11
17	0x2dc46ece	2.2331827e-11
18	0x2dafdb4f	1.999259e-11
19	0x2e15ce4d	3.406191e-11

exp_avg f4 [8]
0	0xbaa7dd15	-0.0012806976
1	0x80000004	-6e-45
2	0xbb999dca	-0.0046879994
3	0x80000004	-6e-45
4	0x39e38619	0.00043396725
5	0x80000004	-6e-45
6	0xc02d1daa	-2.7049356
7	0xbfc6d21f	-1.5532874

exp_avg_sq f4 [8]
0	0x3acc165c	0.0015570628
1	0x3815326e	3.5571335e-05
2	0x3b830ecf	0.003999568
3	0x38c3e03b	9.340091e-05
4	0x3ac3deaf	0.0014943684
5	0x39c0c309	0.00036766406
6	0x4163a26b	14.227153
7	0x4096c5fb	4.7116675

exp_avg f4 [8, 2]
0	0x3aa79ba1	0.001278747
1	0xbaa7b78f	-0.0012795794
2	0x00000004	6e-45
3	0x80000004	-6e-45
4	0x3b9961e7	0.0046808603
5	0xbb997b74	-0.004683906
6	0x00000004	6e-45
7	0x80000004	-6e-45
8	0xb9e32d5e	-0.00043330615
9	0x39e3533d	0.0004335883
10	0x00000004	6e-45
11	0x80000004	-6e-45
12	0x402cd91c	2.7007513
13	0xc02cf686	-2.7025466
14	0x3fc68363	1.5508846
15	0xbfc6a52b	-1.5519155

exp_avg_sq f4 [8, 2]
0	0x3a460945	0.0007554482
1	0x3a9d6921	0.001200948
2	0x35a72d22	1.2455605e-06
3	0x374744b3	1.187732e-05
4	0x3b293f79	0.0025825186
5	0x3b5af6a2	0.0033411165
6	0x36be0696	5.663208e-06
7	0x3812f4dd	3.503716e-05
8	0x39bd3d44	0.00036094536
9	0x3a7b5d16	0.0009588761
10	0x36840600	3.934605e-06
11	0x38c59ab9	9.422511e-05
12	0x41621489	14.130013
13	0x4162bf2d	14.171674
14	0x4095b1cd	4.677954
15	0x409628fe	4.692504

exp_avg f4 [8]
0	0xbaa7dd15	-0.0012806976
1	0x80000004	-6e-45
2	0xbb999dca	-0.0046879994
3	0x80000004	-6e-45
4	0x39e38619	0.00043396725
5	0x80000004	-6e-45
6	0xc02d1daa	-2.7049356
7	0xbfc6d21f	-1.5532874

exp_avg_sq f4 [8]
0	0x3acc165c	0.0015570628
1	0x3815326e	3.5571335e-05
2	0x3b830ecf	0.003999568
3	0x38c3e03b	9.340091e-05
4	0x3ac3deaf	0.0014943684
5	0x39c0c309	0.00036766406
6	0x4163a26b	14.227153
7	0x4096c5fb	4.7116675

exp_avg f4 [8, 2]
0	0x80000004	-6e-45
1	0x00000004	6e-45
2	0xa120af2b	-5.444194e-19
3	0x21202828	5.4263255e-19
4	0x80000004	-6e-45
5	0x00000004	6e-45
6	0xa2cc3ec8	-5.5360783e-18
7	0x22cc87fa	5.543828e-18
8	0x80000004	-6e-45
9	0x00000004	6e-45
10	0x21d92c90	1.4716288e-18
11	0xa1d86d56	-1.466567e-18
12	0xc02ab405	-2.6672375
13	0x402ad328	2.669138
14	0xbf93ecf6	-1.155669
15	0x3f9407ef	1.1564921

exp_avg_sq f4 [8, 2]
0	0x361aac42	2.3048055e-06
1	0x362978b4	2.525322e-06
2	0x35a69bc9	1.2413303e-06
3	0x35bba0f9	1.3979435e-06
4	0x37b0b29a	2.1064003e-05
5	0x37c4b850	2.3450848e-05
6	0x3780b9dc	1.5345337e-05
7	0x3792d027	1.7501485e-05
8	0x38800ad7	6.105535e-05
9	0x38861575	6.3936146e-05
10	0x37908ea0	1.7232553e-05
11	0x37a0720f	1.9126599e-05
12	0x416064fa	14.0246525
13	0x41611a97	14.068992
14	0x4024fb7d	2.5778496
15	0x40257dd4	2.585805

exp_avg f4 [8]
0	0x80000004	-6e-45
1	0xa120f3aa	-5.4532595e-19
2	0x80000004	-6e-45
3	0xa2cc9136	-5.544806e-18
4	0x80000004	-6e-45
5	0x21d9871c	1.4740255e-18
6	0xc02af5e6	-2.6712584
7	0xbf94260d	-1.1574112

exp_avg_sq f4 [8]
0	0x3731990e	1.0585658e-05
1	0x3694164d	4.41334e-06
2	0x388c6ece	6.696359e-05
3	0x380c7bf3	3.3494038e-05
4	0x3a0f8649	0.0005475027
5	0x3894d8b6	7.0975555e-05
6	0x4161f24a	14.121653
7	0x40261863	2.5952384

encode_lstm.weight_ih_l0 f4 [8, 1]
0	0x3e90cec7	0.2828276
1	0x3f3d3cd0	0.7392092
2	0x3f8622f4	1.0479417
3	0xbcc8e92c	-0.024525248
4	0x3d670473	0.056400727
5	0x3ee6d3fe	0.45083612
6	0x40068d56	2.1023765
7	0x3fbfbfd4	1.4980416

encode_lstm.weight_hh_l0 f4 [8, 2]
0	0x3f26e407	0.6519169
1	0xbe33a4b8	-0.17543304
2	0x3f5ffe2f	0.8749723
3	0xbf84be33	-1.0370544
4	0x3f5b50f4	0.856704
5	0xbf4d81e6	-0.80276334
6	0x3f0030d2	0.50074494
7	0xbfa1c987	-1.2639626
8	0x3e9782b9	0.2959192
9	0xbee58a78	-0.44832206
10	0xbeccdb43	-0.40011033
11	0x3e6fc508	0.23415005
12	0x3fa5199d	1.2898442
13	0xbff87d4b	-1.9413236
14	0x40113c89	2.2693198
15	0xbfb65089	-1.4243327

encode_lstm.bias_ih_l0 f4 [8]
0	0x3ef12e08	0.47105432
1	0x3edde2cc	0.43337095
2	0x3e2e2e3d	0.17009826
3	0x3eb74d39	0.35801104
4	0x3f1d22e6	0.61381376
5	0xbf5331a2	-0.8249761
6	0x3fc551b6	1.5415561
7	0x400a8660	2.1644516

encode_lstm.bias_hh_l0 f4 [8]
0	0x3ef1a455	0.47195688
1	0xbd271925	-0.040795464
2	0x3f0b7a3b	0.54483384
3	0x3e4ad9e7	0.19809686
4	0xbe3f2a0a	-0.1866838
5	0x3c2a7d4d	0.010405851
6	0x3fc67c34	1.5506654
7	0x3f944d03	1.1586002

encode_lstm.weight_ih_l0_reverse f4 [8, 1]
0	0x3fa897bf	1.3171309
1	0x3e228dd9	0.15874423
2	0x3f82fd99	1.0233642
3	0x3edfa61f	0.43681428
4	0xbf4d6a12	-0.80239975
5	0x3dfba3c7	0.122870974
6	0x3f8ed5ac	1.1158957
7	0x3f529e86	0.8227314

encode_lstm.weight_hh_l0_reverse f4 [8, 2]
0	0xbe00cf3c	-0.12579054
1	0x3f629648	0.8851056
2	0xbeff494a	-0.49860603
3	0x3c7e4651	0.015519694
4	0xbf76cca3	-0.96406
5	0x3ed65cbd	0.4186763
6	0x3e45e48f	0.1932547
7	0x3f880111	1.0625325
8	0x3ef7d27a	0.48402768
9	0xbf8cd386	-1.1002052
10	0xbf222d99	-0.63350827
11	0xbe6a85f6	-0.22902665
12	0xbfb9365f	-1.4469718
13	0x3f8e3357	1.1109418
14	0xbffe1179	-1.9849082
15	0x40124dae	2.2859912

encode_lstm.bias_ih_l0_reverse f4 [8]
0	0x3e4cd1dd	0.20001931
1	0x3ec54f20	0.3853693
2	0x3edc3e1f	0.43016145
3	0x3f70c929	0.94056946
4	0xbeefccd6	-0.46835965
5	0x3c9c75d0	0.019099146
6	0x4010605a	2.2558808
7	0x3fa6c7eb	1.302976

encode_lstm.bias_hh_l0_reverse f4 [8]
0	0xbe1e2c10	-0.15446496
1	0xbe1a38a0	-0.15060663
2	0x3f012b17	0.50456375
3	0x3f5adf69	0.85497147
4	0x3e139ba3	0.1441484
5	0x3f5b98dc	0.8578012
6	0x3fd46969	1.6594669
7	0x3fbb4cb1	1.4632779

model_param.weight f4 [5, 4]
0	0x3ed71834	0.42010653
1	0xbe86e4fc	-0.26346576
2	0x3ed7a952	0.4212137
3	0x3d3bae5e	0.045820586
4	0x3e1280d4	0.14306957
5	0xbf1f9ae8	-0.62345743
6	0x3ea2e7e7	0.31817552
7	0xbe92bf3c	-0.28661525
8	0x401bf7c7	2.4369981
9	0xbfff8614	-1.9962792
10	0xc018f35c	-2.3898535
11	0x4019d99d	2.403907
12	0xbe35a123	-0.1773725
13	0x3efaa8bd	0.48956862
14	0xbe9ebc9d	-0.31003276
15	0x3daa140e	0.083046064
16	0x3e2fe041	0.1717539
17	0x3b737215	0.0037146856
18	0x3e39ebb1	0.18156315
19	0xbe6a6f20	-0.22893953

model_param.bias f4 [5]
0	0xbe9d9f26	-0.30785483
1	0xbde4e1fd	-0.11175916
2	0x3fce7734	1.6130128
3	0x3e8c6b9f	0.27425858
4	0x3e7b8b13	0.24564771
