model/model.pth (torch_old, 8942 bytes, 30 tensors)

encode_lstm.weight_ih_l0 f4 [20, 1]
000000 32 fd b8 bf ef d4 ae bf 03 34 83 3e 30 45 02 3f
       -1.4452269 -1.3658732 0.2562562 0.5088682
000010 3f 6e 1f 3f ee fa a8 bf a6 0c 37 3e 1f 28 3a 3e
       0.622776 -1.3201578 0.17875919 0.18179367
000020 9a 29 5c be 32 d0 df bc 66 10 a4 be e2 ab d1 be
       -0.21500245 -0.027320955 -0.3204376 -0.4095145
000030 c6 45 6a 3f 41 10 23 be 4f 8e 80 bc f7 50 70 bf
       0.91512716 -0.15924169 -0.015692858 -0.9387354
000040 85 ff 37 3f d4 96 a7 be 49 8d cd be 1c 83 40 bf
       0.71874267 -0.3273226 -0.40146855 -0.7520006

encode_lstm.weight_hh_l0 f4 [20, 5]
000000 2a f8 b9 3f a6 7f 61 bf 8f da 41 bf cd a4 5d 3f
       1.4528859 -0.880854 -0.7572412 0.8657959
000010 3b fb 89 3f 55 d0 ac 3e 40 60 c9 3e c5 3e 12 c0
       1.0779794 0.33752695 0.39331245 -2.2850811
000020 58 d3 2e 3f 2a 89 bc 3f 73 ea 91 3f 7f c2 59 3f
       0.68291235 1.4729359 1.1399673 0.850624
000030 ee 3d 62 3f e5 95 2f bf f4 b1 4b 3f 81 bc a0 bf
       0.8837575 -0.68588096 0.7956841 -1.2557527
000040 12 1c 70 be b2 20 f3 3f 83 0b 7a bf 6c 3e 44 bf
       -0.23448208 1.8994353 -0.97673815 -0.7665775
000050 54 51 01 bf 6a f1 ce be 8a af 2b 3f e3 fd 3e 3e
       -0.5051472 -0.4041856 0.67064726 0.18651538
000060 0b f0 bf bd 7b af 5a 3f bf 8c d9 be bb 25 30 bf
       -0.093719564 0.8542401 -0.42490193 -0.6880757
000070 f3 67 8d 3f 94 89 46 3f df 2a 7e bd fc 75 3a 3f
       1.1047348 0.7755368 -0.062052604 0.7283628
000080 90 85 46 bf 0c 76 8f 3e e9 0e 3f 3f f2 3b 83 3f
       -0.7754755 0.2801975 0.74632126 1.0252669
000090 56 68 b9 bd 8b 1e 4a 3e 52 ea 61 bf fa e7 95 be
       -0.090531036 0.19738214 -0.8824817 -0.29278547
0000a0 ba fd aa bf f4 91 ab be 8b 5f 98 3f fb 49 9b bf
       -1.3358681 -0.3350979 1.1904157 -1.2131952
0000b0 87 f1 91 bf ec 0f 3d be 4c 9d b4 bf 75 3b 4e 3f
       -1.1401833 -0.18463105 -1.4110503 0.80559474
0000c0 41 ee 3e 3f 6a 93 42 be 07 1c 36 bf 6e dc d9 be
       0.74582297 -0.19001547 -0.71136516 -0.42550987
0000d0 3e 15 e1 3d 7f 4d 94 3d c2 f8 28 3e b5 a4 22 3e
       0.1099038 0.07241344 0.16501144 0.15883143
0000e0 bc 83 90 3e 99 24 1c 3c fa 65 dc bc 30 78 a9 be
       0.28225505 0.00953021 -0.026904095 -0.33099508
0000f0 c0 b8 c9 bf 52 5d b8 3e b5 11 15 3e 2e 88 d5 be
       -1.5759506 0.36008698 0.14557536 -0.4170546
000100 d1 83 80 bd 9e 49 e9 bf fe 84 a5 3e f5 3d 75 bf
       -0.06275142 -1.8225591 0.32328027 -0.95797664
000110 65 7f 61 3f 0a 76 af 3f fb cf 0c be 53 3d 53 3c
       0.88085014 1.3707898 -0.13751213 0.012893039
000120 61 1d ba 3e 61 58 c2 3e 9f 1e d5 3e f6 71 87 3f
       0.3635054 0.37958053 0.41624925 1.0581653
000130 df 5a 51 be ff d7 24 bf eb f7 1e 3f 28 ee 5e 3f
       -0.20444821 -0.64392084 0.6209704 0.8708215
000140 f8 8d 8d bf 0f 88 a0 3f f5 01 9c be 31 cf 3e bf
       -1.105895 1.2541522 -0.30470243 -0.745349
000150 07 7f 92 bf 2b 05 eb 3f 0a 79 a1 bf b1 b0 f2 bf
       -1.1445016 1.8360952 -1.2615063 -1.8960172
000160 37 8f 19 3f 4e 81 d7 bd 36 f6 11 bf b2 1f 13 3e
       0.59984154 -0.1052271 -0.57016313 0.1436756
000170 81 7b 36 3f 52 4b 84 3f e4 b2 02 bf d1 55 2e 3f
       0.712822 1.0335486 -0.51054215 0.68099695
000180 3f c6 42 bf 16 a9 a8 be 09 7c c9 3d 81 0f 7d 3f
       -0.7608375 -0.32941502 0.09838111 0.9885178

encode_lstm.bias_ih_l0 f4 [20]
000000 a4 5e 89 bf b8 f8 af bf 9d fb a4 3f 58 7d b5 bd
       -1.0732007 -1.3747778 1.2889286 -0.08861798
000010 53 e3 14 be a5 55 38 bf d4 b6 1c 3d c5 be 68 3f
       -0.14539842 -0.72005683 0.038260296 0.9091609
000020 e8 d3 42 3e 46 85 67 bf 09 c7 91 3e 4a 5e 26 be
       0.19026148 -0.90437734 0.28472164 -0.16246906
000030 58 5e 18 3f 42 4a 64 bf 99 c5 9c bf c5 02 64 bf
       0.5951896 -0.8917581 -1.2247802 -0.89066726
000040 f3 16 47 3f 6b 15 38 bf e9 b0 9a be 4a 42 b5 bf
       0.7776939 -0.7190768 -0.30213097 -1.4160855

encode_lstm.bias_hh_l0 f4 [20]
000000 63 c5 9d bf a9 98 a6 bf b6 ad 8f 3f c0 0d 13 bf
       -1.2325863 -1.3015338 1.1224887 -0.57442856
000010 d9 3e 11 bf cf 30 8c bf 71 49 24 3d 15 21 11 3f
       -0.5673652 -1.0952395 0.0401091 0.56691104
000020 ad 4c bf 3e ab ec 25 bf 70 c6 14 3f 09 54 26 3e
       0.37363186 -0.6481425 0.5811529 0.16242994
000030 88 c4 38 3e 34 6e a3 bf 90 59 83 bf 12 25 ae be
       0.1804372 -1.2768006 -1.0261707 -0.34012657
000040 87 47 3e 3f e9 1b 78 bf c6 03 77 3e c8 0d 95 bf
       0.7432789 -0.9691759 0.24122533 -1.1644831

encode_lstm.weight_ih_l0_reverse f4 [20, 1]
000000 98 8c 6e c0 02 07 54 3f a0 34 40 be c3 66 14 be
       -3.7273312 0.82823193 -0.18770075 -0.14492325
000010 98 cf 05 3d 7f d7 bf bf 32 fd 6a bf 17 41 2c bf
       0.03266868 -1.4987639 -0.91792595 -0.6728682
000020 4e a7 49 3e cd ae 7b bf 6c a9 4b bf d2 33 9d be
       0.19692728 -0.983136 -0.7955539 -0.30703598
000030 6d 01 f2 be 4d da 1b 3d 9a 03 2d 3d 42 3c c4 c0
       -0.47266713 0.038049985 0.042239763 -6.1323557
000040 5c 03 47 bd 7d 9e f0 3f b7 32 ff be 82 08 57 bd
       -0.048587188 1.8798367 -0.4984338 -0.052498348

encode_lstm.weight_hh_l0_reverse f4 [20, 5]
000000 83 bd 32 bf ad 51 14 bd 00 9d c2 3f bf 7f c8 bf
       -0.6982042 -0.036210705 1.5204163 -1.5663985
000010 dd 2b b4 3f 18 e4 3e bf 40 f0 b2 bf da b4 a0 bf
       1.4075886 -0.74566793 -1.3979568 -1.2555192
000020 8e 5d 89 3f 4f 47 81 3f 05 68 4b bf de cc dd bf
       1.0731676 1.0099887 -0.79455596 -1.7328146
000030 a7 03 27 c0 01 38 0c 40 e3 74 79 bf 26 ca 80 3f
       -2.609598 2.1909182 -0.9744398 1.0061691
000040 0d a6 71 bf 32 15 bc bf ff 06 c1 3f 99 0a d2 bf
       -0.94394 -1.4693968 1.508026 -1.6409484
000050 a6 71 db be 82 23 97 be 50 72 9e bf a9 72 71 3f
       -0.42860144 -0.29519278 -1.2378635 0.9431558
000060 3f e6 45 bf b5 70 e8 3e a6 45 a5 bf 62 e0 a2 bf
       -0.7730445 0.4539849 -1.291188 -1.2724726
000070 2e a8 73 3f 9d 67 91 bf 6c cb b4 be ea b6 93 be
       0.95178497 -1.1359745 -0.3531145 -0.2885049
000080 4b 59 f6 3e fd 68 82 be 56 7e 10 3f bd ab 69 3f
       0.48115 -0.25470725 0.56442773 0.91277677
000090 59 97 1c 3e 31 cc e0 be b7 4a 83 3f 00 5d 7c bf
       0.1529211 -0.43905786 1.0257176 -0.98579407
0000a0 e1 6f 76 bf 31 eb d3 bd 7b ad 76 3e 44 40 b9 3f
       -0.96264464 -0.103475936 0.24089615 1.4472737
0000b0 b1 f7 17 3f 16 f4 8f bc 30 15 b6 be 9c 4a 1b 3f
       0.5936232 -0.017572444 -0.3556304 0.6066072
0000c0 34 0c 9c 3e 69 36 00 bf a2 5c d9 3f 02 ec c8 3e
       0.3047806 -0.50083023 1.6981394 0.3924256
0000d0 66 b3 40 3f 6d cc bd be d5 3b 8e bd 5a 2f 37 3f
       0.7527374 -0.37070027 -0.06945006 0.7155663
0000e0 93 43 da 3e 55 4f 8b 3f f1 50 66 bf aa 94 33 3e
       0.4262968 1.0883585 -0.89967257 0.1753718
0000f0 c6 52 15 3f 48 b0 3e 3f 36 61 17 3f 1f 5c 5b bf
       0.5832943 0.74487734 0.5913271 -0.8568744
000100 ac 2a 1b 3d 2c bd 4f 3f 19 88 a6 bf 0f 24 89 bf
       0.037882492 0.8114803 -1.3010284 -1.0714129
000110 7a 47 01 3f 38 ba 15 bf dc b3 6d bd b8 4c 81 3f
       0.5049969 -0.5848727 -0.058032855 1.0101538
000120 64 41 e5 3f 59 1c 9c bf be 06 6f bf d9 d8 f5 be
       1.7910581 -1.2196151 -0.9336966 -0.48017004
000130 72 0b c2 3e 47 ac 8c 3f 48 44 a2 3c 01 41 58 3e
       0.37899357 1.0990075 0.01980795 0.21118547
000140 24 52 1d bf 7d 69 c4 bf d0 f4 0d 40 eb 7d b4 bf
       -0.6145346 -1.5344692 2.2180672 -1.4100927
000150 06 f0 2b 40 d7 b2 38 bf 64 f2 73 bf 02 1d de bf
       2.6865249 -0.7214789 -0.95291734 -1.7352602
000160 55 b9 10 bf 6e 24 86 3f ad ea 37 3f 2e 71 61 be
       -0.56532794 1.0479867 0.7184246 -0.22015831
000170 a1 d2 2c bf 6b 66 78 40 3b d9 91 bf b6 41 a7 be
       -0.67508894 3.881251 -1.1394418 -0.3266732
000180 9c 72 1e bf 0a 34 db bf 17 b7 4f 3f 6b 3f 19 c0
       -0.6189363 -1.7125256 0.8113875 -2.3944957

encode_lstm.bias_ih_l0_reverse f4 [20]
000000 67 f6 5c bf e2 69 96 3f ef bc 3b 40 02 01 06 40
       -0.8631348 1.1751063 2.9334066 2.0938115
000010 6c 67 b2 3f 8a 5d 93 3f d6 ad 07 3f 72 e0 a1 3f
       1.3937812 1.1512921 0.5299963 1.264662
000020 70 dd 15 3e f5 87 07 3e 95 55 6a bf 26 5f cb bf
       0.14635253 0.13235457 -0.9153684 -1.5888412
000030 5b e6 6a bf 80 e7 cc 3f 3e 50 ca bf ce 70 ad 3e
       -0.91757745 1.6008148 -1.5805738 0.33875126
000040 86 f6 27 bf c5 b4 0c bf ff 30 db 3f 3a cc 14 40
       -0.6561054 -0.5496333 1.7124327 2.324965

encode_lstm.bias_hh_l0_reverse f4 [20]
000000 4c 9f 8f bf de 62 93 3f bb 62 31 40 dd 92 e7 3f
       -1.1220489 1.1514547 2.771651 1.8091694
000010 6f 2a d2 3f c8 54 83 3f 3d dc 4a 3f 20 1e 6d 3f
       1.64192 1.0260248 0.79242307 0.9262409
000020 74 ea 67 3e 65 f1 9b 3e c4 0c 53 bf be f7 ae bf
       0.2264803 0.30457607 -0.82441354 -1.3669355
000030 67 3f 93 bf b7 b8 df 3f 52 3a d0 bf e8 87 68 3e
       -1.1503724 1.7478245 -1.6267798 0.22708094
000040 49 f4 ab be 4f ac 82 be c8 d7 af 3f c9 f0 f7 3f
       -0.33584812 -0.25522086 1.3737726 1.9370357

model_param.weight f4 [5, 10]
000000 6c 80 0a 3f 39 b5 76 be e3 45 88 bf 6e ec 0d bd
       0.54102206 -0.24092568 -1.0646328 -0.034649305
000010 62 60 bb 3d d1 07 3e bf 29 67 4a bd a9 5c 45 3e
       0.09149243 -0.74230677 -0.049414787 0.19273628
000020 14 fe a8 3d 01 31 43 bd 17 4f ef be 8a 78 d4 3e
       0.082515866 -0.047654156 -0.46740028 0.41498214
000030 d4 26 49 bf 76 05 14 3a a4 aa 3e bd 12 50 51 3e
       -0.7857487 0.00056465657 -0.046549454 0.204407
000040 de c2 01 bf c3 dd a1 be e5 52 c8 3d 21 b4 a6 bd
       -0.5068797 -0.31614503 0.09781436 -0.081398256
000050 53 49 47 3e e8 3d 93 bc 69 7c 17 bf f1 c5 ca 3f
       0.19461565 -0.017973855 -0.5917421 1.5841657
000060 e8 97 f4 3c 32 bd 8c bf 27 37 f8 3c 67 06 3f 3f
       0.02985759 -1.0995238 0.030299736 0.74619144
000070 c3 0d 0f 3d 2c 44 d1 be 48 de 99 3e 92 70 0c 3f
       0.034925234 -0.40872324 0.300524 0.5485927
000080 a1 3c 5b 3e 9f 40 23 bc 60 fa 1c 3e 8d a6 12 be
       0.21409847 -0.009964137 0.15329885 -0.14321347
000090 a3 4a d2 bf c8 e5 98 be 04 aa e4 3f 29 e4 55 bf
       -1.6429027 -0.2986281 1.7864385 -0.8355127
0000a0 0d 5d b7 bc 1d 9b 6b 3c ed a8 d3 bd 90 fd 11 3e
       -0.022383237 0.014380244 -0.103349544 0.14256883
0000b0 9c 96 87 bd e3 9b 2d bb 6c b5 32 bc a4 06 96 bc
       -0.06620523 -0.002649062 -0.010907512 -0.018313713
0000c0 09 9e d0 3c 43 a7 2b 3d
       0.025465982 0.04190756

model_param.bias f4 [5]
000000 89 88 a0 3d 10 65 09 be 57 cc 9a 3e 8a 2c e2 3f
       0.07838542 -0.13417459 0.30234024 1.7669842
000010 e6 d1 a6 3d
       0.08145504

exp_avg f4 [20, 5]
000000 f4 3a 46 b2 25 1f 4d 33 aa c9 ee b4 a0 58 04 36
       -1.1538521e-08 4.7758608e-08 -4.4477684e-07 1.972112e-06
000010 81 1b ee 33 f3 c5 8f b4 ec bb 2a 35 79 5f 63 b7
       1.10877416e-07 -2.6779853e-07 6.36034e-07 -1.3552483e-05
000020 69 31 27 38 23 1b 01 36 e1 5f 3b b9 61 5e 50 b4
       3.986192e-05 1.9238294e-06 -0.00017869427 -1.9405844e-07
000030 3e 72 9d 36 13 dd 00 34 e9 e2 25 33 41 36 4b 36
       4.692264e-06 1.2001355e-07 3.862343e-08 3.0280937e-06
000040 ff 58 29 36 65 ec f4 b7 34 db c0 38 e7 d8 7f 36
       2.5234765e-06 -2.9197146e-05 9.196103e-05 3.8124215e-06
000050 94 d4 58 33 af 45 88 32 7f e1 36 b5 36 31 8a 35
       5.0484758e-08 1.5864172e-08 -6.8128423e-07 1.0296123e-06
000060 22 5d 1e b3 65 4a fd b0 03 9c cd 30 b5 79 ab b2
       -3.6871945e-08 -1.8429317e-09 1.4960054e-09 -1.9962366e-08
000070 f7 ff c1 33 cb 9a b0 31 c4 a7 ed 32 84 68 ec 34
       9.0338226e-08 5.139872e-09 2.7666722e-08 4.403447e-07
000080 95 24 e9 b6 5a 6c ba 37 0c 27 57 35 28 25 81 b7
       -6.9482e-06 2.2223383e-05 8.015056e-07 -1.53953e-05
000090 24 de 29 b4 b1 5f 18 36 72 08 05 34 f4 8a 10 33
       -1.5820166e-07 2.2705465e-06 1.2389663e-07 3.365399e-08
0000a0 06 69 0d 38 33 e6 c2 36 19 64 98 b8 f1 c7 2d 39
       3.371483e-05 5.8084493e-06 -7.2665694e-05 0.0001657305
0000b0 cf 39 e4 36 14 72 80 33 c8 06 08 33 6c 63 eb b4
       6.8016593e-06 5.981215e-08 3.1671135e-08 -4.38445e-07
0000c0 b6 b9 92 35 e9 c0 e5 32 5e f0 fc b2 fe a8 52 33
       1.0931897e-06 2.6746834e-08 -2.9445967e-08 4.9048133e-08
0000d0 37 2e ef b4 32 e1 0e 36 f3 0d 07 34 d5 b9 4c 34
       -4.4550845e-07 2.129073e-06 1.257793e-07 1.9066586e-07
0000e0 e5 50 51 34 b1 a3 bc 36 2d 3b 87 b6 0a 96 3c 32
       1.9494071e-07 5.621893e-06 -4.0302025e-06 1.0977155e-08
0000f0 27 7c b6 30 13 7b 47 30 0a bd 1c b0 be 80 95 b0
       1.3277529e-09 7.257068e-10 -5.702111e-10 -1.0877768e-09
000100 19 51 80 af ee 75 59 b5 ff 86 07 b4 9f 5b e1 35
       -2.3340688e-10 -8.101041e-07 -1.2621966e-07 1.6790472e-06
000110 fe 2c 95 b6 ae 5e 47 b4 44 61 21 b1 c1 2c e2 b1
       -4.445784e-06 -1.8567764e-07 -2.3483873e-09 -6.5825536e-09
000120 a1 33 ea 33 45 52 a2 b4 75 97 18 b2 99 26 09 b3
       1.09058654e-07 -3.023471e-07 -8.882002e-09 -3.1932903e-08
000130 c8 03 1d 33 9f 8c d4 b4 73 e1 f2 35 d9 3e dd 33
       3.655785e-08 -3.9590392e-07 1.8096019e-06 1.03025464e-07
000140 8a 01 c3 b2 24 0f 89 31 b1 6c 8c b4 f0 f9 29 35
       -2.2701688e-08 3.988946e-09 -2.6156115e-07 6.3321113e-07
000150 08 da 1c 32 2d 91 f3 b4 7b e5 0e b7 b6 2b d3 38
       9.12997e-09 -4.5367906e-07 -8.51729e-06 0.00010069406
000160 03 d9 ba b9 bd 32 89 b7 df e8 a3 35 35 f7 b3 37
       -0.0003563837 -1.63553e-05 1.2212221e-06 2.1453578e-05
000170 26 bf 94 b9 05 d6 65 3a 5a d3 1a 38 06 90 74 33
       -0.00028371176 0.0008767548 3.6913298e-05 5.6941666e-08
000180 03 de 88 34 7a 62 88 b6 d0 a0 40 37 97 b1 c3 34
       2.549351e-07 -4.06458e-06 1.1481534e-05 3.6450794e-07

exp_avg_sq f4 [20, 5]
000000 91 00 ae 30 f9 da c7 33 0d 2b f4 30 7f 92 40 33
       1.2660327e-09 9.3064905e-08 1.7765572e-09 4.483672e-08
000010 1f 5d fa 2f 96 db 22 30 33 14 f6 36 65 e2 ee 33
       4.5540902e-10 5.9247307e-10 7.333723e-06 1.11239196e-07
000020 64 cd 13 35 08 54 25 33 de f6 e1 36 5e 64 41 32
       5.506065e-07 3.8493482e-08 6.7342617e-06 1.1256899e-08
000030 f9 a1 55 35 88 7f 90 34 ab 1f d0 31 09 63 a9 35
       7.9584385e-07 2.691488e-07 6.057197e-09 1.2620304e-06
000040 b6 f0 25 35 b2 79 a4 33 98 6e 34 36 89 86 b9 31
       6.181757e-07 7.6589814e-08 2.6886464e-06 5.3995035e-09
000050 9c bd 8c 34 a8 e9 b5 33 fa fd d0 33 92 f8 00 33
       2.621499e-07 8.470971e-08 9.731953e-08 3.0028396e-08
000060 ba 7a 3d 33 86 7c 53 31 e1 c9 4c 32 37 0e a7 2e
       4.411661e-08 3.0775325e-09 1.1920265e-08 7.596806e-11
000070 4f 1b 9f 32 00 03 c0 2d 8f 58 c4 30 85 40 68 37
       1.8522455e-08 2.1829205e-11 1.4286047e-09 1.38433e-05
000080 0c 51 ca 33 60 20 d8 34 63 b4 11 33 c2 22 50 36
       9.4211e-08 4.025669e-07 3.3924504e-08 3.1014647e-06
000090 38 d8 90 30 23 04 a1 35 54 7e d3 33 01 84 f4 2c
       1.0538832e-09 1.1996639e-06 9.848432e-08 6.9495525e-12
0000a0 1c d2 38 37 ce dc 7c 35 ef 5a da 35 65 cf 42 37
       1.10161745e-05 9.419863e-07 1.6268731e-06 1.1611589e-05
0000b0 18 f3 d2 31 d3 b0 68 34 70 9b 6e 32 37 d3 e9 33
       6.139441e-09 2.1671012e-07 1.3888766e-08 1.0888328e-07
0000c0 c6 15 c8 31 13 1d 5a 32 c1 fc c7 32 88 bb 04 34
       5.8232414e-09 1.2695881e-08 2.3281588e-08 1.2361681e-07
0000d0 cc 91 49 31 0b e3 37 34 e1 95 60 32 74 cc 5c 31
       2.9332226e-09 1.7125801e-07 1.3072595e-08 3.2130432e-09
0000e0 8a 93 7a 37 51 b9 6b 34 b0 b0 e4 35 71 50 b6 33
       1.4935513e-05 2.1953498e-07 1.7038747e-06 8.4896676e-08
0000f0 6e 2e ce 32 a9 fb e9 33 5a c0 48 30 a3 36 33 34
       2.400267e-08 1.0895685e-07 7.3032924e-10 1.6690551e-07
000100 27 57 34 2f bf 4c 00 31 16 98 f1 32 b8 4a 35 2f
       1.6401867e-10 1.8670077e-09 2.8125253e-08 1.64884e-10
000110 c7 22 56 31 25 20 40 2e 87 50 4e 32 cc 52 21 31
       3.1160867e-09 4.3684296e-11 1.2009088e-08 2.3475648e-09
000120 29 14 64 2f 3b 6f 74 2f e1 db 98 31 23 33 5f 34
       2.0743642e-10 2.2231188e-10 4.4487796e-09 2.0787097e-07
000130 25 40 44 34 13 dd d9 32 c3 ac f8 34 49 69 66 30
       1.8277258e-07 2.5362658e-08 4.63193e-07 8.382313e-10
000140 c8 ed 95 32 c7 a2 41 36 9e a6 3f 31 9d b2 0a 35
       1.7454013e-08 2.885399e-06 2.788887e-09 5.166892e-07
000150 af f3 df 32 0a 14 6e 33 f4 53 28 34 81 15 53 34
       2.6071431e-08 5.543192e-08 1.5676761e-07 1.965873e-07
000160 47 09 cf 35 90 6b 53 32 da 62 1e 34 0d 53 19 39
       1.5425402e-06 1.2306273e-08 1.4750859e-07 0.00014622156
000170 65 5b 91 35 a8 59 16 38 5c c3 22 35 5a 62 56 2f
       1.0829941e-06 3.5846286e-05 6.063399e-07 1.9498128e-10
000180 03 f9 c2 35 b9 14 fc 31 46 45 cf 34 a8 cd 1c 33
       1.4526598e-06 7.336521e-09 3.8607158e-07 3.6508624e-08

exp_avg f4 [20]
000000 3d 6c b0 b6 9b 35 2e b9 0d 9d 3d b9 24 e9 b5 b9
       -5.2578093e-06 -0.00016613903 -0.0001808295 -0.00034696714
000010 ba bb 48 b7 de a4 80 b4 49 9a 0c b9 ac 84 84 b7
       -1.1964637e-05 -2.3961815e-07 -0.00013408916 -1.5797406e-05
000020 fd 2b 47 ba 22 2f c7 b6 19 dd b0 b6 7e db 28 3a
       -0.00075978023 -5.936149e-06 -5.270948e-06 0.0006441398
000030 19 42 46 34 b9 d6 2e 37 50 5b d3 35 85 17 bc b6
       1.8464233e-07 1.0421202e-05 1.57473e-06 -5.6055746e-06
000040 9b 12 af b6 d3 ae 8d 3a 66 28 96 bb 30 13 72 b8
       -5.2175724e-06 0.0010809548 -0.0045824526 -5.7715166e-05

exp_avg_sq f4 [20]
000000 3c 6a c6 34 65 3a 84 38 13 94 e4 36 2b 4f 37 37
       3.695767e-07 6.305127e-05 6.8121676e-06 1.0926083e-05
000010 4c c6 0a 35 e6 8e 13 33 60 f5 64 38 bf a4 4a 36
       5.1697566e-07 3.435607e-08 5.458796e-05 3.019624e-06
000020 c6 01 ff 37 84 4c b7 34 38 93 3f 35 d2 28 43 39
       3.0399195e-05 3.414208e-07 7.1367276e-07 0.00018611856
000030 a7 e1 aa 34 05 70 1b 34 e1 ef 7c 33 49 3a 82 35
       3.182915e-07 1.4476252e-07 5.889149e-08 9.702718e-07
000040 59 7a 60 36 75 15 0e 38 6e 63 17 3a f1 e1 60 36
       3.3449817e-06 3.387542e-05 0.0005775009 3.3510116e-06

exp_avg f4 [20, 1]
000000 e3 25 46 38 88 c1 1f 39 2c 58 ae b7 01 72 a7 37
       4.7242163e-05 0.00015235518 -2.0783475e-05 1.9961039e-05
000010 cf 70 7c 39 0e 19 ff 38 35 2d 86 38 c7 a7 52 3a
       0.00024074617 0.00012164014 6.3980384e-05 0.0008035865
000020 4e eb e0 3c ac 44 51 3c 44 4a 10 b5 33 c3 a4 b7
       0.027455952 0.01277272 -5.375225e-07 -1.964122e-05
000030 60 ac c1 b4 76 fa 0c 37 32 8b 1e 37 68 39 c3 b8
       -3.607447e-07 8.402965e-06 9.449943e-06 -9.309017e-05
000040 c8 0e 6a 3a 3c b1 9d 3b 7e f6 81 b7 8b cb c1 38
       0.0008928594 0.0048123877 -1.549278e-05 9.24087e-05

exp_avg_sq f4 [20, 1]
000000 93 7b b8 37 ba 5e 08 37 7a 1a b9 3c ed fb 9c 39
       2.1992053e-05 8.128287e-06 0.022595633 0.00029942338
000010 01 8d ba 3d 26 da 2a 3a 75 7c c8 36 cf 4c 8d 3b
       0.091089256 0.0006517492 5.974953e-06 0.004312135
000020 fc 77 c6 41 df 78 75 3a fa 5f 20 35 88 7f 03 36
       24.808586 0.00093640195 5.974431e-07 1.9594754e-06
000030 e8 15 1b 36 18 11 80 3a d3 a1 d9 3b 29 65 60 37
       2.310955e-06 0.0009770719 0.0066416054 1.3374994e-05
000040 2b 5c bf 3c a4 b7 12 3a ac bc d5 3d 36 35 cc 3b
       0.023359379 0.00055968226 0.10436377 0.006231929

exp_avg f4 [20]
000000 3d 6c b0 b6 9b 35 2e b9 0d 9d 3d b9 24 e9 b5 b9
       -5.2578093e-06 -0.00016613903 -0.0001808295 -0.00034696714
000010 ba bb 48 b7 de a4 80 b4 49 9a 0c b9 ac 84 84 b7
       -1.1964637e-05 -2.3961815e-07 -0.00013408916 -1.5797406e-05
000020 fd 2b 47 ba 22 2f c7 b6 19 dd b0 b6 7e db 28 3a
       -0.00075978023 -5.936149e-06 -5.270948e-06 0.0006441398
000030 19 42 46 34 b9 d6 2e 37 50 5b d3 35 85 17 bc b6
       1.8464233e-07 1.0421202e-05 1.57473e-06 -5.6055746e-06
000040 9b 12 af b6 d3 ae 8d 3a 66 28 96 bb 30 13 72 b8
       -5.2175724e-06 0.0010809548 -0.0045824526 -5.7715166e-05

exp_avg_sq f4 [20]
000000 3c 6a c6 34 65 3a 84 38 13 94 e4 36 2b 4f 37 37
       3.695767e-07 6.305127e-05 6.8121676e-06 1.0926083e-05
000010 4c c6 0a 35 e6 8e 13 33 60 f5 64 38 bf a4 4a 36
       5.1697566e-07 3.435607e-08 5.458796e-05 3.019624e-06
000020 c6 01 ff 37 84 4c b7 34 38 93 3f 35 d2 28 43 39
       3.0399195e-05 3.414208e-07 7.1367276e-07 0.00018611856
000030 a7 e1 aa 34 05 70 1b 34 e1 ef 7c 33 49 3a 82 35
       3.182915e-07 1.4476252e-07 5.889149e-08 9.702718e-07
000040 59 7a 60 36 75 15 0e 38 6e 63 17 3a f1 e1 60 36
       3.3449817e-06 3.387542e-05 0.0005775009 3.3510116e-06

exp_avg f4 [20, 5]
000000 2e d5 eb b9 fd cb 53 b7 79 d6 8b b9 ba b2 1c 3b
       -0.00044981524 -1.2624075e-05 -0.0002667194 0.002391024
000010 25 af 1c bb 53 3f 59 b8 63 e6 cf 33 d5 41 2f 35
       -0.0023908105 -5.1795807e-05 9.681096e-08 6.528838e-07
000020 77 be 3a b8 19 b9 51 38 8e 46 d8 2f ed 0e 9c 30
       -4.452324e-05 5.000187e-05 3.9340303e-10 1.1354736e-09
000030 b3 38 15 35 1a ae cb b2 92 3a 28 35 68 0d 1d b7
       5.5589334e-07 -2.3711483e-08 6.267011e-07 -9.361051e-06
000040 10 b4 98 32 a2 44 23 34 ef c5 e7 b6 6b 4c 02 37
       1.7777012e-08 1.5205526e-07 -6.907379e-06 7.766396e-06
000050 c2 c4 a0 35 0f 1d 08 b4 37 e8 f5 b8 f8 d7 fc 38
       1.1978193e-06 -1.2676558e-07 -0.00011725764 0.00012056524
000060 43 1c c7 b8 54 32 8a b9 b2 e4 29 b7 17 a9 7e b9
       -9.4943236e-05 -0.00026358909 -1.0126432e-05 -0.00024286319
000070 81 32 05 3b 91 21 05 bb 71 23 3b 37 8a 08 92 b1
       0.0020324292 -0.0020314197 1.115432e-05 -4.25013e-09
000080 b3 37 de b6 53 86 06 37 7e c3 54 b6 5d 5c 6b a9
       -6.6226e-06 8.018297e-06 -3.1704253e-06 -5.2260595e-14
000090 ee 3a b4 b4 e6 14 11 b9 51 52 11 39 98 41 00 b9
       -3.357049e-07 -0.00013836063 0.00013858943 -0.00012231467
0000a0 86 e4 63 bc 30 28 f8 37 71 ad 31 39 48 e6 2c bc
       -0.013909465 2.9582618e-05 0.00016944647 -0.01055295
0000b0 ac 74 40 3c ba a3 a5 38 72 7b d9 b6 26 da e8 bb
       0.011746567 7.8983096e-05 -6.481475e-06 -0.0071060834
0000c0 c3 03 eb 3b 1c a1 ba bb b9 a6 58 37 99 a9 a8 34
       0.0071720793 -0.0056954753 1.2913421e-05 3.1415837e-07
0000d0 2d d2 da 36 24 67 74 b8 11 5f 74 38 23 40 96 36
       6.521374e-06 -5.827019e-05 5.826267e-05 4.477815e-06
0000e0 6b 83 9d b1 14 b2 82 b2 a0 b7 7d 36 0b 6d 92 b6
       -4.584242e-09 -1.5214972e-08 3.7806822e-06 -4.3638333e-06
0000f0 ee 52 07 a9 c1 ea 37 2f 84 a3 03 34 a1 b9 09 b4
       -3.0047952e-14 1.6727154e-10 1.2259812e-07 -1.282665e-07
000100 57 18 d7 33 cf 91 a8 b6 e2 94 04 32 be a0 a4 33
       1.0016145e-07 -5.0237645e-06 7.717263e-09 7.666084e-08
000110 00 94 80 b6 e3 c7 91 36 51 6c b4 b4 da 33 37 31
       -3.8319267e-06 4.3446066e-06 -3.3606423e-07 2.665948e-09
000120 73 6c 52 36 6a 3c 82 b6 43 e2 18 36 ee a6 80 bb
       3.1355564e-06 -3.881335e-06 2.2781467e-06 -0.0039261496
000130 df c3 c4 37 03 c2 b5 b9 83 91 ab bb de 78 ac 3b
       2.345623e-05 -0.0003466756 -0.005235852 0.005263432
000140 f7 fe 87 37 74 9e 17 36 89 19 bd b8 a5 3f b6 b9
       1.6211981e-05 2.2592985e-06 -9.0169786e-05 -0.00034761164
000150 26 fd e1 39 e8 17 2c 3a b7 11 09 38 f1 2a 36 bb
       0.00043103955 0.00065648416 3.2679844e-05 -0.0027796591
000160 02 c7 6b bb 95 35 8c 3b e1 12 17 37 4d 0e 89 31
       -0.0035976772 0.0042788484 9.004697e-06 3.9888506e-09
000170 c6 f2 f5 b8 0a bc eb 38 a0 7b 82 b8 28 44 e1 b7
       -0.000117277305 0.00011240698 -6.22191e-05 -2.6853828e-05
000180 b1 fb 04 33 ba d5 5f b7 e5 5e a1 b6 72 ab 61 37
       3.0962557e-08 -1.3341598e-05 -4.809221e-06 1.3450963e-05

exp_avg_sq f4 [20, 5]
000000 f7 45 02 39 80 5f 59 34 07 50 f4 38 28 11 d7 3a
       0.0001242383 2.0244443e-07 0.00011649733 0.0016408311
000010 bf ac d6 3a f3 ab e0 33 73 af bd 2f 85 1b 9b 2f
       0.0016378387 1.046209e-07 3.4503564e-10 2.821389e-10
000020 8d d8 c6 33 ed 6b d4 33 50 74 16 35 0b dd 32 36
       9.259484e-08 9.891651e-08 5.604861e-07 2.665273e-06
000030 b6 c1 1a 34 02 b5 c0 34 99 a7 17 34 b5 9a 07 35
       1.4412839e-07 3.5894487e-07 1.4123943e-07 5.051655e-07
000040 79 6a 35 33 1b 28 a1 35 a6 85 f3 34 76 66 ed 35
       4.2239183e-08 1.2007107e-06 4.535952e-07 1.7687696e-06
000050 7b f0 8c 39 93 f7 58 35 02 12 13 37 7d 0e 38 39
       0.00026882053 8.082654e-07 8.766076e-06 0.00017553005
000060 ff 34 42 37 6d 8f 0b 3a ae 31 bf 33 2b d2 46 38
       1.157564e-05 0.00053238013 8.903167e-08 4.7402613e-05
000070 95 b6 b6 3a f1 b2 b6 3a be e2 80 34 9b df 1e 33
       0.0013939912 0.0013938827 2.4006835e-07 3.699061e-08
000080 04 80 48 34 99 b4 8b 35 0e 27 85 35 19 a4 9b 39
       1.8673023e-07 1.0408868e-06 9.920639e-07 0.00029686166
000090 7d 6e c0 33 5e ad e7 36 56 60 a2 39 37 eb af 39
       8.9607944e-08 6.904519e-06 0.00030970824 0.0003355385
0000a0 f8 2a 12 3e 5c 00 27 37 0b bf 8c 39 03 e1 08 3e
       0.14274204 9.954059e-06 0.0002684522 0.13367085
0000b0 39 bd 11 3e b7 5e 61 37 9e bc dd 35 02 78 4e 39
       0.14232339 1.3433098e-05 1.6520678e-06 0.00019690397
0000c0 5b 47 96 39 e3 6c 68 39 a0 cc 2f 35 7c 55 e5 2e
       0.00028663393 0.00022165808 6.549035e-07 1.04288994e-10
0000d0 2e 12 9e 33 bd 0d 17 36 bf b7 16 36 f1 8a 9d 31
       7.360755e-08 2.250875e-06 2.2458696e-06 4.585097e-09
0000e0 c8 cb 4d 30 40 7a 5d 2f c7 e8 07 32 73 0a 90 31
       7.4868156e-10 2.0143265e-10 7.910962e-09 4.1921395e-09
0000f0 37 71 78 32 44 e3 4b 30 30 e5 5b 30 0b 5f 71 32
       1.4461242e-08 7.4173934e-10 7.999743e-10 1.40496565e-08
000100 da f9 89 32 98 7a d7 33 28 7a 90 34 e8 1d a6 36
       1.6062518e-08 1.0034017e-07 2.691097e-07 4.950667e-06
000110 67 a5 88 34 b1 02 87 36 ae c3 9d 35 49 99 8e 37
       2.545232e-07 4.023627e-06 1.1754362e-06 1.6999098e-05
000120 e0 89 15 36 87 75 46 36 8f 8d e4 35 54 f9 3e 3a
       2.2282984e-06 2.957271e-06 1.7028523e-06 0.00072850776
000130 bb 45 cf 35 c9 22 23 39 fd 7c 30 3b a4 24 31 3b
       1.5442996e-06 0.0001555785 0.0026929968 0.0027029896
000140 4f d9 18 39 2c cb 8d 38 96 a7 fa 38 8f 4e 19 3a
       0.00014576803 6.761248e-05 0.00011952144 0.0005848193
000150 10 34 1b 3a 0e f1 3f 3a db 6d 28 36 a7 e8 a8 3a
       0.00059205387 0.0007321992 2.5097895e-06 0.0012886719
000160 39 7f ed 3b 3e 8c e8 3b 62 b1 0d 39 82 0b 02 39
       0.007247832 0.0070967963 0.00013512888 0.00012402053
000170 7e 47 7c 39 f6 7f c3 39 b2 c7 05 3a 77 0e d8 35
       0.00024059226 0.00037288637 0.0005103304 1.6097464e-06
000180 3e 95 2d 37 58 09 ab 36 18 05 28 36 f1 28 13 36
       1.0346352e-05 5.097285e-06 2.5036916e-06 2.1928538e-06

exp_avg f4 [5, 10]
000000 4c fe 49 ba 0c ee 1a 39 aa 05 e7 ba 4b dc c6 3b
       -0.00077054347 0.00014775264 -0.0017625589 0.0060687414
000010 b1 8e 92 39 a6 30 e6 3b 00 7d 0f 39 49 07 df 3a
       0.00027953603 0.0070248423 0.00013684109 0.0017015721
000020 d0 ab b7 bc 97 bd b7 3c 3f 70 71 bc 21 b4 9f 36
       -0.022420794 0.02242927 -0.014736234 4.759539e-06
000030 1e 3c 87 38 5e 20 5a b9 9d d6 1b 36 a9 80 4f bc
       6.448499e-05 -0.00020802158 2.3221721e-06 -0.012664952
000040 2a 19 21 38 d6 06 95 ba e8 ce 1b bc 22 38 2c 3c
       3.8408827e-05 -0.0011369835 -0.0095097795 0.01051143
000050 d8 72 5c bb 30 5a b5 b8 a8 ce ba 3a 10 71 8a bb
       -0.0033637788 -8.647551e-05 0.0014252262 -0.004224904
000060 71 00 2d b9 56 5b 55 bc 2d 82 25 b9 a8 2d 41 3b
       -0.0001649873 -0.0130222645 -0.0001578412 0.0029476676
000070 35 02 ab 3c 3f 93 b0 bc 00 5b 1c 3d 4c d2 8b b9
       0.020875076 -0.021554587 0.038172722 -0.0002666883
000080 8a f7 e0 3a 08 a7 ef bb 91 ec b8 b9 89 b8 14 bd
       0.0017163616 -0.007313613 -0.0003527147 -0.0363088
000090 f8 d9 59 39 e9 a7 00 be 0f 59 69 3d dc 40 f1 bc
       0.00020775932 -0.12564053 0.0569697 -0.029449873
0000a0 b5 ea df 3a 94 93 36 37 6d a2 81 b8 22 a8 a2 39
       0.0017083498 1.0882406e-05 -6.1814535e-05 0.00031024317
0000b0 8e fe ae 37 90 5e cf 3a ff 3c 82 b5 11 df df ba
       2.0860953e-05 0.0015821029 -9.703507e-07 -0.0017080029
0000c0 d9 e3 ee 3a cd 4f c4 ba
       0.0018225863 -0.0014977396

exp_avg_sq f4 [5, 10]
000000 5e ce b4 3b 29 97 8f 3a 4b 4c 87 37 8d 85 fb 38
       0.005517765 0.0010955083 1.612878e-05 0.000119934884
000010 97 f4 27 39 b0 ba 22 3b d7 95 33 37 4e 8c 1b 3a
       0.00016017478 0.0024830513 1.0704119e-05 0.0005933688
000020 de 48 74 3c da 47 74 3c 7c 00 41 3b 4e 4f f1 39
       0.014909951 0.014909709 0.0029449752 0.0004602619
000030 0a 7e b0 36 70 d5 1c 38 85 cb e7 38 f0 a8 ca 3a
       5.2598816e-06 3.7392078e-05 0.00011052847 0.0015461724
000040 c1 7b 15 37 ad 29 2a 3a 49 26 dd 3b 8d bd da 3b
       8.909906e-06 0.00064911955 0.0067489487 0.0066754282
000050 3c b4 98 3c 74 23 a1 3b 96 24 38 38 6b 6a 08 3a
       0.01864063 0.0049175564 4.3903092e-05 0.0005203846
000060 63 fd 31 3a 71 59 18 3c 63 b5 94 37 6f ca 3c 3b
       0.0006789772 0.009298668 1.772744e-05 0.0028807183
000070 97 61 81 3d b6 27 81 3d 74 f0 04 3f 87 9a ac 3d
       0.06317442 0.063064024 0.519294 0.08427911
000080 58 7a bf 3a 64 19 21 3c eb 59 90 3c 6d 88 93 3e
       0.0014608605 0.009832714 0.017621001 0.28815022
000090 04 56 09 3b 3a d8 db 3d 1a 0d a2 3f 8d a3 a0 3f
       0.002095581 0.10734601 1.2660248 1.2549912
0000a0 f1 1c 7b 39 21 e7 10 38 cd 50 15 36 e8 dd 89 36
       0.00023948007 3.454753e-05 2.2249762e-06 4.1087515e-06
0000b0 15 98 22 37 cd d8 0c 39 b5 80 00 36 e0 17 46 38
       9.691362e-06 0.00013432205 1.9148404e-06 4.7229114e-05
0000c0 fe 21 0b 3a e3 58 0a 3a
       0.00053074944 0.00052775274

exp_avg f4 [20]
000000 af c2 1c 3b 72 77 51 b8 f1 49 5a b5 ab 67 02 b7
       0.0023919751 -4.9940725e-05 -8.131893e-07 -7.772741e-06
000010 8e a0 fd 38 38 41 05 3b 6d ef d0 36 71 6f 28 39
       0.00012093886 0.0020333063 6.226756e-06 0.00016063244
000020 1b 9a 40 bc 4c 7b eb 3b 57 7e 74 b8 7a 7c 92 36
       -0.011755492 0.007186329 -5.8291796e-05 4.36563e-06
000030 22 9a 0b b4 20 e2 91 b6 0a b1 44 b6 f2 9d ac bb
       -1.3001457e-07 -4.347661e-06 -2.9309326e-06 -0.005267852
000040 a4 ca c7 b9 eb b8 6a bb 21 71 b9 38 6f f4 19 b7
       -0.00038107217 -0.0035815786 8.842559e-05 -9.176422e-06

exp_avg_sq f4 [20]
000000 a0 59 d7 3a b4 b0 e7 33 21 62 b2 36 41 9e 2f 36
       0.0016429909 1.0788918e-07 5.316237e-06 2.6169148e-06
000010 85 fb 93 39 7e 29 b7 3a 5a 96 91 35 0d 24 b1 39
       0.00028225422 0.0013974158 1.08471e-06 0.0003378693
000020 90 c0 12 3e f2 04 99 39 df 5e 17 36 36 48 1d 32
       0.1433127 0.0002918612 2.2555976e-06 9.155022e-09
000030 4b f4 a6 32 31 ae 03 37 aa 5b 0a 38 b2 99 31 3b
       1.9436035e-08 7.848766e-06 3.2987133e-05 0.0027099666
000040 82 5f 31 3a 9e ec ed 3b 85 b8 48 3a 45 3d a9 37
       0.0006766246 0.007260873 0.000765689 2.01749e-05

exp_avg f4 [5]
000000 f4 bd b6 bc 61 23 26 bc 8b de a8 3c e6 88 52 3d
       -0.022307374 -0.010140271 0.02061393 0.051400088
000010 f3 e5 f4 3a
       0.0018684253

exp_avg_sq f4 [5]
000000 17 9b 75 3c ac ae e1 3b 43 01 82 3d f4 01 a5 3f
       0.01499059 0.0068872776 0.06347897 1.2891221
000010 68 52 0e 3a
       0.00054291496

exp_avg f4 [20, 1]
000000 79 68 87 b5 86 1e bb b9 93 44 a1 3b 1a 62 96 ba
       -1.0088689e-06 -0.0003569016 0.0049215048 -0.0011473328
000010 b9 cf 3c b8 0b 9f 00 b4 06 a8 2e ba 9e f8 c7 39
       -4.501615e-05 -1.1978788e-07 -0.00066626107 0.00038141472
000020 10 2f 21 bb 30 55 78 b7 44 84 42 36 20 07 9a 39
       -0.0024594702 -1.4801786e-05 2.8985241e-06 0.00029378477
000030 f5 5c df b4 9a 5d d5 38 d7 08 78 36 b5 43 33 36
       -4.1604622e-07 0.00010174066 3.6960025e-06 2.671249e-06
000040 94 39 30 b7 f9 c6 af 39 d1 5c 4d bc 61 e4 03 b9
       -1.0503823e-05 0.00033526847 -0.012534336 -0.00012578211

exp_avg_sq f4 [20, 1]
000000 84 e6 c8 34 3e c4 a0 39 34 52 c6 3b e4 64 5c 3a
       3.7420625e-07 0.0003066379 0.00605228 0.0008407368
000010 d8 6b 09 39 6e 93 00 35 17 66 77 3a d5 e4 45 3b
       0.00013105513 4.7898254e-07 0.0009437515 0.003019621
000020 24 4e f5 3a 3c a0 35 39 b1 f8 40 3b fc 27 02 3a
       0.0018715304 0.00017321197 0.0029445107 0.00049650646
000030 4b 88 8d 36 5b c0 72 36 54 47 e1 35 0b d5 8b 37
       4.217994e-06 3.6172776e-06 1.6784566e-06 1.6669297e-05
000040 53 bd 9e 37 da a3 87 3b 97 5d e6 3b 71 66 a3 37
       1.8923229e-05 0.0041394057 0.0070301997 1.9478817e-05

exp_avg f4 [20]
000000 af c2 1c 3b 72 77 51 b8 f1 49 5a b5 ab 67 02 b7
       0.0023919751 -4.9940725e-05 -8.131893e-07 -7.772741e-06
000010 8e a0 fd 38 38 41 05 3b 6d ef d0 36 71 6f 28 39
       0.00012093886 0.0020333063 6.226756e-06 0.00016063244
000020 1b 9a 40 bc 4c 7b eb 3b 57 7e 74 b8 7a 7c 92 36
       -0.011755492 0.007186329 -5.8291796e-05 4.36563e-06
000030 22 9a 0b b4 20 e2 91 b6 0a b1 44 b6 f2 9d ac bb
       -1.3001457e-07 -4.347661e-06 -2.9309326e-06 -0.005267852
000040 a4 ca c7 b9 eb b8 6a bb 21 71 b9 38 6f f4 19 b7
       -0.00038107217 -0.0035815786 8.842559e-05 -9.176422e-06

exp_avg_sq f4 [20]
000000 a0 59 d7 3a b4 b0 e7 33 21 62 b2 36 41 9e 2f 36
       0.0016429909 1.0788918e-07 5.316237e-06 2.6169148e-06
000010 85 fb 93 39 7e 29 b7 3a 5a 96 91 35 0d 24 b1 39
       0.00028225422 0.0013974158 1.08471e-06 0.0003378693
000020 90 c0 12 3e f2 04 99 39 df 5e 17 36 36 48 1d 32
       0.1433127 0.0002918612 2.2555976e-06 9.155022e-09
000030 4b f4 a6 32 31 ae 03 37 aa 5b 0a 38 b2 99 31 3b
       1.9436035e-08 7.848766e-06 3.2987133e-05 0.0027099666
000040 82 5f 31 3a 9e ec ed 3b 85 b8 48 3a 45 3d a9 37
       0.0006766246 0.007260873 0.000765689 2.01749e-05
