model/run2/model.pth (torch_old, 8973 bytes, 30 tensors)

encode_lstm.weight_ih_l0 f4 [20, 1]
00000000: 62ce adbe 7b5a cd3e 0119 573f decd 043f
00000010: 5793 7f3e 6f5d 15bf a24c 053f 07e6 013f
00000020: f501 db3e baf7 303f be60 8d3e 751f 193f
00000030: f5d2 f53e 0410 0b3f 119e 36bf 7783 58bf
00000040: 43d9 c73e 09d6 a03e 0d28 c43e 4076 59c0
-0.3394652 0.40108094 0.8402253 0.5187663 0.2495855 -0.58345693 0.5207006 0.5074162
0.4277493 0.69128 0.2761287 0.59813625 0.4801251 0.5432131 -0.7133494 -0.845756
0.39032945 0.31413296 0.38311806 -3.3978424

encode_lstm.weight_hh_l0 f4 [20, 5]
00000000: 8602 273f ab85 d2bf 85c8 92bf 946a 27bf
00000010: 303b 723f f76f 313f 5774 a33e a063 f83e
00000020: 576f 0e3f 7601 68bf 51ca 2a3f 48bb f83d
00000030: db59 ec3e 817c 6b3f 7649 4fbf d233 43bd
00000040: 887b 393e a371 153f ad1c 233e f15f 92bf
00000050: b84f c8bf e26c a73e 2b74 cc3e 9676 2f3f
00000060: ed8d d4bf af95 ba3e 815b 32bf e54e f6be
00000070: f4df b4bf 996c 283f 0278 16be c307 8c3e
00000080: 3f6c 3a3f dd26 1a3f 4fca 36bf 39f8 b73d
00000090: 4d41 073f a086 4a3e 3c7a 683e 0bfb c6be
000000a0: af32 013f 18a3 4f3f ee61 043f d86f 2a3f
000000b0: b0d4 24bf b6fd 1d3f f82f ce3e b917 413f
000000c0: 37ed 803f 59af 42bf f53a ef3e 3c12 d0be
000000d0: 342f 29bf 9369 33bf 562f ec3e 7aaa a9be
000000e0: 6220 6f3e f836 353e 4dfe 723f 07b4 8ebe
000000f0: 55d8 4a3e 80f8 88be 3d35 963e 70b0 be3e
00000100: 7b90 f5be 13b9 02bf f48f 613e e36d 3a3f
00000110: 89a4 353e 4451 babe adcd d8bc a5a0 c6be
00000120: 9f53 26bf cf9a 7cbe 55a1 b23e 9533 19bd
00000130: 7997 9cbf 1a8c 83bf 07b8 95bf f250 b83f
00000140: 9649 433f af16 343f 5bad 4e3f 8c6e a23f
00000150: 5cc5 3fbf 03bc 2fbe 9fea 8d3f 0f2c c03f
00000160: 630b e33f 2458 c2bf 25ef 573f 35bf 383f
00000170: c3f2 de3f 2d4d bd3f 7004 93bf 92b2 703f
00000180: 4e29 ebbe 7d3a 533b bd8f eabe a9e4 833f
0.65238225 -1.6447042 -1.1467444 -0.65397 0.9462156 0.6931147 0.31924698 0.48513508
0.5563864 -0.9062723 0.6671496 0.12145096 0.46162304 0.9198685 -0.8097147 -0.04765684
0.1811353 0.5837652 0.15928908 -1.1435529 -1.5649328 0.32700258 0.3993238 0.6854032
-1.6605812 0.36442325 -0.69670874 -0.48107067 -1.4130845 0.65790707 -0.14694217 0.27349672
0.7282142 0.6021555 -0.7140245 0.089828916 0.52834016 0.19777918 0.22702879 -0.38863406
0.5046796 0.81108236 0.5171193 0.6657691 -0.64387035 0.6171526 0.40270972 0.7542682
1.0072392 -0.7604881 0.46724668 -0.40638912 -0.6608765 -0.7008297 0.46129864 -0.33137876
0.23352197 0.1769675 0.9491928 -0.27871725 0.19809087 -0.2675209 0.29337493 0.37243986
-0.47961792 -0.5106365 0.2202757 0.72823924 0.17738546 -0.36390126 -0.026465261 -0.38794437
-0.64971346 -0.2466843 0.34888712 -0.037402708 -1.2233726 -1.0277131 -1.1696786 1.4399703
0.7628416 0.7034711 0.8073327 1.2689986 -0.7491052 -0.17161565 1.1087226 1.5013446
1.773785 -1.5183148 0.8434928 0.7216676 1.7417835 1.4789177 -1.1485729 0.94022477
-0.4592995 0.0032230907 -0.4581279 1.0304157

encode_lstm.bias_ih_l0 f4 [20]
00000000: ba4a 3fbf 1efe aebe adc6 3b3f 0f4a 913d
00000010: 6a5f cc3f 8e64 01be f860 9e3e 60bf 813f
00000020: 937b 873e cf2f c93d 590b e6be ed79 0d3f
00000030: 1ab1 003f f4e1 0d3f 0383 e0bd 74c9 43bf
00000040: f77f 873f 6116 b53f 8e62 8e3f e10c 8b3e
-0.747234 -0.3417825 0.7335003 0.07094204 1.5966618 -0.12636015 0.30933356 1.0136528
0.26461467 0.09823572 -0.44930533 0.5526417 0.50270236 0.554229 -0.109624885 -0.7647927
1.0585927 1.4147455 1.1123827 0.27158263

encode_lstm.bias_hh_l0 f4 [20]
00000000: 0fc5 7bbf 0a67 ad3e 37e2 933c 1916 1b3e
00000010: 3b6f fe3f e3e3 9bbe a692 c23e 01b5 933e
00000020: 8aba 113e 0e57 8cbe d704 0fbf 8ad7 1a3e
00000030: c4cf 3d3f 8d1a a73e c347 09bf 9e2f 64bf
00000040: 73ba 8c3f a1a5 0540 24bd c23f b5a8 ae3d
-0.9834756 0.33867675 0.018052204 0.15145148 1.9877695 -0.304473 0.3800251 0.28849033
0.14231315 -0.27410167 -0.5586676 0.15121284 0.7414515 0.32637444 -0.53625125 -0.8913516
1.09944 2.0882342 1.5213971 0.08528272

encode_lstm.weight_ih_l0_reverse f4 [20, 1]
00000000: 2430 d7bf 5aa2 953f 2ecb 85bf 5454 80c0
00000010: d524 47bf 2412 adbf 68ac 82bf a5af c83e
00000020: 2a3e edbf 7a5a 69be a8ea 9cbe 3fea e2be
00000030: 1a92 b0be df51 dcbe 0475 9abd b541 14c0
00000040: 93f7 d9be f0b4 afbb e128 78be 05b9 ccbf
-1.6811566 1.1690171 -1.045263 -4.010294 -0.77790576 -1.3521161 -1.0208864 0.39196506
-1.8534596 -0.2278842 -0.3064778 -0.4431934 -0.34486467 -0.43031213 -0.0754185 -2.3165104
-0.42571697 -0.0053621456 -0.24234344 -1.5993963

encode_lstm.weight_hh_l0_reverse f4 [20, 5]
00000000: 7943 c6bf 65f3 903f b973 5e3f 1702 0740
00000010: 93ee f43f 3818 13c0 8b9c cdbe aca0 a93e
00000020: 412c 11c0 e49f 36be ed76 933e 9983 41bf
00000030: 8326 b63e d3c8 00bf ee38 0a40 c961 043f
00000040: d741 0a3f 4ef0 ccbe 2bbc c93f 49b0 5abe
00000050: 9a69 bd3d 4cad 09bf 7efe cc3f 0c9f 3f3f
00000060: 5da1 3b3f 3944 ae3f c9f4 e73f 5338 823d
00000070: 5bc4 a6bf 8829 53bd 6170 02bf 25d8 c5bf
00000080: c273 973f 9bbe 8bbe 9bb0 e93f 58c5 8abe
00000090: 6464 213f 50d0 0540 2cb5 bfbe b369 3f3f
000000a0: 1303 00c0 2181 45bf 9c57 ee3f 211c 203e
000000b0: 4bb6 8a3f 77e2 293f ec91 313f 7cf2 0dc0
000000c0: d253 18c0 c7f4 b3bf 4a00 56be 2014 d43e
000000d0: c27c cdbf de03 c6bf 86a5 573e 954f fe3e
000000e0: d7b3 d9be 569c 01c0 bea7 4d3f d063 a0bf
000000f0: a07b 783e 5d82 72bf 44a4 033f 2707 8abf
00000100: 8a93 ba3f 7b97 16bf c4c2 89bf 64d3 373f
00000110: 1ca3 0640 af4f fd3f cc1f d2bc ee2d 87be
00000120: 6892 b43f 3838 a13f 328f 73bd 2cd7 f2bf
00000130: 7b1b b03f e4e0 3a3f 6eff 9dbe 7ad3 4a3f
00000140: 8d15 cb3f 7126 863e ce0b 05bf 79ed 73bf
00000150: c2c4 68bf 0240 fc3e d9a2 38bf 9ff9 623f
00000160: 109e aa3e fc7c 5f3f 30da 7d3f 7542 bbbe
00000170: 81fa e33d 2736 cfbf caf1 15be c550 d43f
00000180: cf3e 9f3f 9c39 c6be dcbb e1be 15f4 58bf
-1.5489341 1.1324278 0.8689533 2.1095026 1.9135307 -2.2983532 -0.40158495 0.33130395
-2.268326 -0.17834431 0.2880167 -0.7559143 0.35576257 -0.50306433 2.1597247 0.5171171
0.54006714 -0.40027088 1.5760549 -0.2135631 0.092486575 -0.53780055 1.6015165 0.7485206
0.73293096 1.361457 1.8121578 0.06358399 -1.3028673 -0.05155328 -0.50952727 -1.5456587
1.1832201 -0.27293858 1.8257021 -0.27103686 0.6304381 2.0908394 -0.3744291 0.7477066
-2.0001876 -0.7715016 1.8620486 0.1563573 1.0836881 0.6636118 0.69363284 -2.217925
-2.380116 -1.4059075 -0.20898548 0.41421604 -1.6053698 -1.546993 0.21059236 0.4967009
-0.4252002 -2.025167 0.8033408 -1.253046 0.24265909 -0.9473017 0.51422524 -1.0783433
1.4576275 -0.5882489 -1.0762563 0.7180693 2.1037054 1.9789943 -0.025649928 -0.2640223
1.410718 1.2595282 -0.059462734 -1.8971915 1.3758386 0.72999406 -0.3085894 0.7922894
1.5865952 0.26201203 -0.5197114 -0.9528423 -0.9092523 0.49267584 -0.72123486 0.8866214
0.33323717 0.87300086 0.9916105 -0.3657414 0.11131764 -1.6188401 -0.14643016 1.6587149
1.2441043 -0.38715827 -0.44088638 -0.8474744

encode_lstm.bias_ih_l0_reverse f4 [20]
00000000: d755 74bd 75c9 c43e 186b 513f 42e7 5ebf
00000010: 0d79 9d3f ca97 88be 0ce1 b43f 5322 923d
00000020: 5ffa 0f40 e19f 00c0 d717 46bf 1282 98bf
00000030: 8343 b03f cdec 533e 3914 973f 429c 19bf
00000040: f771 70be 5c4f 0a40 3824 d73e 210a bcbe
-0.059652176 0.3843495 0.8180404 -0.8707162 1.2302567 -0.26678306 1.4131179 0.07135453
2.2496564 -2.0097582 -0.77380127 -1.1914694 1.3770603 0.20695801 1.1803046 -0.60004056
-0.23480974 2.1610937 0.4201982 -0.36726478

encode_lstm.bias_hh_l0_reverse f4 [20]
00000000: eaa9 2c3f 210f 083f 619f 4d3f d520 88bf
00000010: 4488 573f a8b3 1dbe 6455 cd3f bf07 1f3f
00000020: c3ee e73f cc2e e3bf ad92 e7be a4e2 8abf
00000030: 59f1 c03f ead3 4b3f 4b7b 643f d185 ddbe
00000040: 53d7 31be ef15 1840 3e24 c53e 1cf8 1fbe
0.6744677 0.53148085 0.8032132 -1.063502 0.841923 -0.15400565 1.6041684 0.62121195
1.8119739 -1.7748656 -0.45229092 -1.0850415 1.5073653 0.7962023 0.8925063 -0.43266156
-0.17367296 2.3763387 0.38504213 -0.1562199

model_param.weight f4 [5, 10]
00000000: 0ae9 0f3e a543 6fbd aed7 74be 72df 613e
00000010: f250 8d3f 2f92 a3be ce0c 6fbd c95e 8bbd
00000020: 7785 3b3f 09ff 68be 3682 0fbd 2c52 8e3e
00000030: e1b2 7fbe fa69 9a3e c2f2 e93e f231 b03c
00000040: a0dc 273e c2f5 333e 3a70 f3be 5d8b c5bd
00000050: 591e 153e 804f bf3d c9fd da3b df6d edbd
00000060: f56e 0440 1042 43bf c914 28be 382c 18bd
00000070: 9e7d 883f 5186 93bd 286d 00c0 2c9c 0a3f
00000080: e653 283f dff2 373f c983 79be 8e13 263e
00000090: cab5 88bc 4cca 713f 1046 6bbe 9f53 493e
000000a0: 575a 15be 9c0b 91bc b9ce 8e3e e4b6 9ebd
000000b0: e858 d63d adf3 5dbb 2772 3ebc e525 18bd
000000c0: 118c 193b 2c4a 32bc
0.14053741 -0.05841412 -0.239104 0.22057894 1.1040328 -0.31947467 -0.05836182 -0.06805188
0.73250526 -0.22753538 -0.03503629 0.27797067 -0.2497058 0.3015898 0.45693022 0.02150819
0.16392756 0.17574218 -0.4754656 -0.09645722 0.14562358 0.09341335 0.0066830856 -0.11593222
2.0692723 -0.7627268 -0.16414179 -0.037151545 1.0663335 -0.07203353 -2.0066624 0.5414455
0.6575302 0.71854967 -0.24366678 0.16218397 -0.016688246 0.94449306 -0.22975945 0.19660805
-0.14585243 -0.017705731 0.27892092 -0.07749727 0.10466176 -0.0033867166 -0.011623896 -0.037145514
0.0023429433 -0.010881942

model_param.bias f4 [5]
00000000: 70cf c63d ec50 febd e0bd 1abd ef03 d13f
00000010: 97cf acbd
0.09707534 -0.124177784 -0.037778735 1.6329325 -0.08438032

exp_avg_sq f4 [20, 5]
00000000: 3c3f 142f c092 3d31 8928 4931 2c1f 4531
00000010: fd56 bc2e a6a3 bb2d 26c9 502a 9645 df2a
00000020: 4dda ab2a f17c d32b eded 7a28 dbc6 c527
00000030: 994a 9228 9386 4128 03df 8328 2c46 2a2d
00000040: 6355 6e29 0213 122a f10a db29 9e70 742b
00000050: 77e8 2838 ff34 8129 9642 b629 978f 8329
00000060: 6f62 b036 9d40 2a2f 0b3c 062e 1719 2a2e
00000070: 80fd 172e ab6f 862c d72e 9129 0a37 502b
00000080: 3354 c12b 409d 8b2b 2935 142b 144f c928
00000090: a9fc d329 7491 772a 7b13 252a fbb5 2f2a
000000a0: a705 6329 bfb4 e62a 9370 3a2b dd7a 182b
000000b0: 797f 372a 206d a42e 0a3f 902a d5a6 022b
000000c0: 3650 c12a ca31 9b2d d87f 602a 4119 8e2b
000000d0: d9d2 d62b 0487 a82b e8e0 e62a cd4c 1e2a
000000e0: a8eb 0b2b 8f1b b82b c714 752b f3b3 902b
000000f0: d322 9228 943b 0f29 c634 ed29 fc1f a129
00000100: 5611 dc29 efe1 1b28 3772 0229 26c8 0b2a
00000110: 149a a329 f2c7 e129 7b60 7d2b 5b6f cc28
00000120: eb47 c629 481c 7429 0ec0 5c2a ad89 ec2d
00000130: d805 3d31 226e 4831 8577 4431 271c c32e
00000140: 98da ac2e f66b a737 9a1d af37 6fff ad37
00000150: 0a55 2835 8751 bc2a c3c7 b233 f58f bc33
00000160: b71c bb33 824a 2731 ed03 f92d c63e b635
00000170: 3e15 bf35 01ac bd35 cd11 2c33 dc1c 822c
00000180: c4ff bd3a 2aa5 c13a 691a c13a f074 9038
1.3482987e-10 2.7586537e-09 2.9272391e-09 2.8684992e-09 8.5647024e-11 2.1332113e-11 1.8543899e-13 3.9661042e-13
3.0527179e-13 1.502713e-12 1.392938e-14 5.4894083e-15 1.6241608e-14 1.0742833e-14 1.4640638e-14 9.6789625e-12
5.2920677e-14 1.2974e-13 9.727452e-14 8.68425e-13 4.027082e-05 5.737944e-14 8.0939744e-14 5.8424775e-14
5.256668e-06 1.5484365e-10 3.05214e-11 3.867581e-11 3.4558578e-11 3.8209067e-12 6.447419e-14 7.3972827e-13
1.3736845e-12 9.92019e-13 5.2653937e-13 2.2349777e-14 9.414112e-14 2.1988471e-13 1.4661703e-13 1.560626e-13
5.0409028e-14 4.0981625e-13 6.62367e-13 5.4171755e-13 1.6297891e-13 7.477241e-11 2.562328e-13 4.6416804e-13
3.4339345e-13 1.764357e-11 1.9939551e-13 1.0096716e-12 1.5264137e-12 1.1974592e-12 4.1012267e-13 1.4059865e-13
4.970976e-13 1.3081635e-12 8.707032e-13 1.0281761e-12 1.6224359e-14 3.1804054e-14 1.0534069e-13 7.155385e-14
9.77297e-14 8.65322e-15 2.8964864e-14 1.241512e-13 7.2653824e-14 1.0026692e-13 9.001755e-13 2.2696842e-14
8.805442e-14 5.4203414e-14 1.9606558e-13 2.6891234e-11 2.7506442e-09 2.9166434e-09 2.8589693e-09 8.872574e-11
7.8604845e-11 1.9958225e-05 2.087541e-05 2.0742153e-05 6.2708625e-07 3.345208e-13 8.3251074e-08 8.780618e-08
8.713089e-08 2.4344051e-09 2.8309766e-11 1.3578326e-06 1.4236791e-06 1.4131657e-06 4.006306e-08 3.6980263e-12
0.001449578 0.0014773954 0.0014732602 6.8882364e-05

exp_avg f4 [20, 5]
00000000: aa02 3f2e c630 3bb6 4b55 3cb6 662d 3cb6
00000010: 1d45 6835 8f8f 42a2 3acf 251a 581f f317
00000020: 776e c119 1673 52a1 b3b2 a11f e2c7 0718
00000030: f018 c715 cc66 9e17 5f26 4c9f 50d7 5520
00000040: c6e7 f819 fa7b b617 842f 9119 3015 33a1
00000050: 9b52 f034 5045 a2a6 5077 a3a6 7449 a3a6
00000060: dc2b 0d32 87d5 ea2b 74a9 e6b3 9e11 e8b3
00000070: 78e0 e7b3 ece9 0d33 9ed9 3e1d 3ab0 9f15
00000080: 1326 6a13 7c4a 3a15 7b2e f09c d4b3 a01b
00000090: 037c 0614 8d32 c511 aee3 9c13 363a 4a9b
000000a0: 0942 401d 17e4 a015 32ea 6b13 c9b1 3b15
000000b0: 3bf6 f19c 2ed3 41a1 f01d 68aa 3de1 69aa
000000c0: 6d9e 69aa 5f2a 2d29 5e77 19ab b6cf 1133
000000d0: 4bb8 1233 a398 1233 1e89 3eb2 b070 0b99
000000e0: ba53 6991 c00f 2b8f 3e19 0891 f379 af18
000000f0: 5210 e698 eb87 4091 f827 0d8f 369b e090
00000100: 63c1 9018 04da 439a 48e1 a392 254c 7090
00000110: 772e 3f92 7376 f619 0e17 a3a0 f66d 9c28
00000120: 249e 9d28 2671 9d28 bb5d 69a7 540c 3f2e
00000130: 9538 3bb6 275d 3cb6 4135 3cb6 1b52 6835
00000140: 0a55 a131 2a9e 93b9 888d 94b9 e36c 94b9
00000150: 253b c238 0876 302f b3ee 13b7 f901 15b7
00000160: 8fdc 14b7 2d74 6336 8c5c b530 fe74 a2b8
00000170: 3e79 a3b8 b855 a3b8 ea97 d437 75cf 24b4
00000180: 854d 0c3c 1e13 0d3c 0ef8 0c3c 9af6 2bbb
4.3430738e-11 -2.7893561e-06 -2.806383e-06 -2.8040608e-06 8.652731e-07 -2.6367902e-18 3.4288597e-23 1.5711419e-24
2.0000349e-23 -7.130308e-19 6.8481785e-20 1.7549256e-24 8.0414804e-26 1.023646e-24 -4.323042e-20 1.8113043e-19
2.5736212e-23 1.179277e-24 1.501184e-23 -6.06756e-19 4.4763587e-07 -1.1259795e-15 -1.1342737e-15 -1.1330307e-15
8.217253e-09 1.6685966e-12 -1.0741033e-07 -1.08065464e-07 -1.07976064e-07 3.304187e-08 2.5258796e-21 6.4497625e-26
2.9553724e-27 3.762116e-26 -1.5893883e-21 2.658599e-22 6.789728e-27 3.1112274e-28 3.9604446e-27 -1.6727857e-22
2.5445128e-21 6.498335e-26 2.9776637e-27 3.7904597e-26 -1.6011691e-21 -6.567044e-19 -2.0616126e-13 -2.0772702e-13
-2.0749522e-13 3.8450468e-14 -5.4522175e-13 3.3949355e-08 3.4160887e-08 3.4132096e-08 -1.1090632e-08 -7.208889e-24
-1.8406259e-28 -8.433984e-30 -1.0736287e-28 4.5359577e-24 -5.9470086e-24 -1.5188012e-28 -6.9595344e-30 -8.859156e-29
3.74184e-24 -4.0501166e-23 -1.0342282e-27 -4.7390314e-29 -6.0326246e-28 2.5483645e-23 -2.762853e-19 1.7367167e-14
1.7499084e-14 1.7479572e-14 -3.2386057e-15 4.343932e-11 -2.7898107e-06 -2.8068405e-06 -2.804518e-06 8.6546214e-07
4.6953845e-09 -0.00028155866 -0.0002833421 -0.00028309887 9.2616574e-05 1.604904e-10 -8.817459e-06 -8.881551e-06
-8.87284e-06 3.389326e-06 1.3195787e-09 -7.7465535e-05 -7.795029e-05 -7.788412e-05 2.534311e-05 -1.5349163e-07
0.008563404 0.008610515 0.008604063 -0.0026239515

exp_avg_sq f4 [20]
00000000: a1c6 5631 6e10 c12d 47cb 5b29 66c1 2d2d
00000010: 8de8 2838 5b79 7c2f 10da 142c 89c9 e62a
00000020: 78ff 8b2b ba0c a62e 3918 372c c4c4 392c
00000030: 6b82 8f2a fe0c e62a f397 a22b 3995 4c31
00000040: a293 af37 b342 bd33 85a6 bf35 9fd5 c13a
3.1254006e-09 2.1948856e-11 4.8804083e-14 9.8768545e-12 4.02709e-05 2.296238e-10 2.1153114e-12 4.099605e-13
9.947451e-13 7.551067e-11 2.601931e-12 2.6399308e-12 2.5492398e-13 4.0865222e-13 1.1552967e-12 2.977073e-09
2.0930373e-05 8.813131e-08 1.4279073e-06 0.0014788395

exp_avg f4 [20]
00000000: a161 3cb6 308f 4222 4bb3 a19f 69db 55a0
00000010: 9b52 f0b4 dd20 e8b3 4bda 3e9d 6ab4 a09b
00000020: bc42 409d 6bf5 69aa fbc1 1233 3d71 0b19
00000030: 2a11 e618 b2da 431a 80ac 9d28 7d69 3cb6
00000040: 8f97 94b9 1e0d 15b7 3484 a3b8 b81b 0d3c
-2.807101e-06 2.6367706e-18 -6.848277e-20 -1.8114399e-19 -4.4763587e-07 -1.080932e-07 -2.5259145e-21 -2.658637e-22
-2.544549e-21 -2.0779704e-13 3.4169698e-08 7.209e-24 5.9470938e-24 4.0501716e-23 1.7505311e-14 -2.8075585e-06
-0.0002834168 -8.884146e-06 -7.7970704e-05 0.008612566

exp_avg_sq f4 [20]
00000000: e41e a037 87ad 4f39 6065 4539 db70 3339
00000010: 50ba e833 889c 293b 8254 a335 9cd0 c138
00000020: 0b1e 2335 6b2c 2337 54d8 8534 fa3c 4634
00000030: 7abc fe39 3f63 d936 0754 8432 5ae6 083b
00000040: 7f91 8e39 2bb6 3f37 d7c2 163b 29f5 2a3a
1.908787e-05 0.00019805702 0.00018825149 0.00017112812 1.0837232e-07 0.0025880653 1.2169041e-06 9.241814e-05
6.076595e-07 9.725899e-06 2.493058e-07 1.846237e-07 0.0004858708 6.4786577e-06 1.5405034e-08 0.0020889253
0.00027192754 1.1426901e-05 0.0023004317 0.0006521517

exp_avg f4 [20]
00000000: 3090 deb8 41c9 24b9 e8c6 6237 f836 d03a
00000010: 6d52 8537 fb60 903a 9a14 a5b6 cb0c c23a
00000020: 4f19 8037 5016 f3b5 2961 1736 c1ec a834
00000030: c222 f835 dd08 8b38 71af 88b5 3190 7ebb
00000040: 94ad 0cba 46d6 093a 9f0c beba 4aae 21bb
-0.00010612642 -0.00015715232 1.3516961e-05 0.0015885523 1.5893218e-05 0.001101523 -4.9197815e-06 0.0014804838
1.5270574e-05 -1.8111405e-06 2.2557308e-06 3.14647e-07 1.8487556e-06 6.6296874e-05 -1.018385e-06 -0.003884327
-0.00053664413 0.00052580645 -0.0014499611 -0.0024670535

exp_avg_sq f4 [20, 1]
00000000: 70fa 9b35 6713 e539 0a4e d93b 18a0 3537
00000010: ffd9 2033 deb3 793b 4ddd 2a36 f6be 243c
00000020: e96c 0a36 0f27 1f3a e423 ee37 ac36 ee35
00000030: 1aef b13b 1e6b 4d35 e235 5533 2b58 a138
00000040: 03d7 d539 083f c839 ed8d 843a f9f7 0339
1.1621287e-06 0.0004369274 0.0066316174 1.0825715e-05 3.745117e-08 0.0038101594 2.5460788e-06 0.010055294
2.0626997e-06 0.0006071189 2.8388524e-05 1.7748293e-06 0.0054301145 7.6524327e-07 4.9641933e-08 7.693501e-05
0.00040786722 0.00038193935 0.0010113098 0.0001258551

exp_avg f4 [20, 1]
00000000: bf2d 6cb9 3e3a f638 e096 3c38 aee1 f339
00000010: 15a7 aa38 e38a 71ba 6add b735 da61 bdbc
00000020: 30fd c0b7 8dfc 5037 e33a 80b6 234c 5cb4
00000030: 3014 0e37 31c1 fd37 0dbd 0337 eaa9 a73a
00000040: d82b 4339 8d95 433a 3cf3 133d 51cf 863b
-0.00022523756 0.000117410425 4.4963206e-05 0.00046516716 8.137353e-05 -0.0009214116 1.3699002e-06 -0.023117948
-2.3006083e-05 1.2456568e-05 -3.8215526e-06 -2.0516795e-07 8.46856e-06 3.0249912e-05 7.852225e-06 0.0012791727
0.00018612982 0.00074609445 0.03612064 0.0041140695

exp_avg_sq f4 [20]
00000000: a1c6 5631 6e10 c12d 47cb 5b29 66c1 2d2d
00000010: 8de8 2838 5b79 7c2f 10da 142c 89c9 e62a
00000020: 78ff 8b2b ba0c a62e 3918 372c c4c4 392c
00000030: 6b82 8f2a fe0c e62a f397 a22b 3995 4c31
00000040: a293 af37 b342 bd33 85a6 bf35 9fd5 c13a
3.1254006e-09 2.1948856e-11 4.8804083e-14 9.8768545e-12 4.02709e-05 2.296238e-10 2.1153114e-12 4.099605e-13
9.947451e-13 7.551067e-11 2.601931e-12 2.6399308e-12 2.5492398e-13 4.0865222e-13 1.1552967e-12 2.977073e-09
2.0930373e-05 8.813131e-08 1.4279073e-06 0.0014788395

exp_avg f4 [20]
00000000: a161 3cb6 308f 4222 4bb3 a19f 69db 55a0
00000010: 9b52 f0b4 dd20 e8b3 4bda 3e9d 6ab4 a09b
00000020: bc42 409d 6bf5 69aa fbc1 1233 3d71 0b19
00000030: 2a11 e618 b2da 431a 80ac 9d28 7d69 3cb6
00000040: 8f97 94b9 1e0d 15b7 3484 a3b8 b81b 0d3c
-2.807101e-06 2.6367706e-18 -6.848277e-20 -1.8114399e-19 -4.4763587e-07 -1.080932e-07 -2.5259145e-21 -2.658637e-22
-2.544549e-21 -2.0779704e-13 3.4169698e-08 7.209e-24 5.9470938e-24 4.0501716e-23 1.7505311e-14 -2.8075585e-06
-0.0002834168 -8.884146e-06 -7.7970704e-05 0.008612566

exp_avg_sq f4 [20, 5]
00000000: 1ca9 4036 c6c0 5536 8e3f 9f37 d16f 4d35
00000010: f73c 2634 48c7 1439 decc 1c36 0d23 4e39
00000020: 78d9 0739 392c 8e38 1f86 f530 cbe6 1736
00000030: 545e a235 a90a f130 d21c d930 aeed ac37
00000040: 5a32 8d37 3c72 3239 a9fd 3536 4c97 9935
00000050: 71c6 1333 d0c7 ba32 027a e633 3736 cb32
00000060: 0bc7 4a32 5855 d53a 380c 5e38 f0b2 283b
00000070: 44c1 c93a aaf0 3d3a 3735 3135 be18 2633
00000080: dcaa 9f35 9a80 3c35 6723 c134 2e1c 9c38
00000090: 5a9c 8b36 af2c 6638 1174 9038 b6ed 7338
000000a0: ffbf b933 a883 1934 b4a8 2035 2777 ae32
000000b0: a2cb a232 8032 1937 f54f da33 129c 1d37
000000c0: 4665 1737 387f 1e37 8322 8833 fc30 6733
000000d0: 68cb 8434 f832 9a32 7393 9b31 e85d 0b34
000000e0: b5de c430 3429 3934 ad15 3334 368c f933
000000f0: 1ff3 7531 0f51 5536 092d 6338 fe26 6431
00000100: 9674 6c31 901a 7735 75fb 9335 2a11 d836
00000110: 636f d332 4666 2033 f284 3831 861e c731
00000120: 22c3 3832 bb18 2830 0c5b 2d30 f3b5 143a
00000130: 9fcf 9639 9820 083b 0c85 9c39 9077 5638
00000140: d64b 8d38 9394 4b38 7552 8a39 2538 4038
00000150: 4c86 4c37 031c 9736 17c4 c735 5058 2137
00000160: 6479 5036 9125 1136 e088 453a e52a 1f39
00000170: ac8e 153b 49e7 f739 b454 ae38 cbee 6d39
00000180: e827 ef38 1319 2a3a abe8 2b39 9d48 a138
2.8708664e-06 3.1851682e-06 1.8983872e-05 7.6531165e-07 1.5482134e-07 0.00014188618 2.336506e-06 0.00019658748
0.00012955617 6.779325e-05 1.7864216e-09 2.2635093e-06 1.2097394e-06 1.7538088e-09 1.5797019e-09 2.0614676e-05
1.6831957e-05 0.00017017958 2.7118751e-06 1.1443421e-06 3.4406586e-08 2.1744114e-08 1.0732403e-07 2.3656964e-08
1.1803205e-08 0.0016276045 5.2940304e-05 0.002574142 0.0015392681 0.00072456396 6.6015076e-07 3.867239e-08
1.189615e-06 7.02226e-07 3.597481e-07 7.4439085e-05 4.1607245e-06 5.4877888e-05 6.888074e-05 5.81571e-05
8.649658e-08 1.4297132e-07 5.985014e-07 2.031045e-08 1.8951884e-08 9.131269e-06 1.016596e-07 9.394267e-06
9.023881e-06 9.447154e-06 6.339271e-08 5.382843e-08 2.4734913e-07 1.7951137e-08 4.5278568e-09 1.2979547e-07
1.4324174e-09 1.7244457e-07 1.667856e-07 1.162047e-07 3.579039e-09 3.1786656e-06 5.416296e-05 3.3200531e-09
3.4408791e-09 9.2053324e-07 1.1025537e-06 6.4393e-06 2.4614286e-08 3.734592e-08 2.6851095e-09 5.7951324e-09
1.0754578e-08 6.115319e-10 6.306642e-10 0.00056728645 0.0002876492 0.002077138 0.00029853766 5.1132927e-05
6.7375295e-05 4.8537342e-05 0.00026382846 4.5828656e-05 1.2190616e-05 4.5034117e-06 1.4883725e-06 9.61691e-06
3.1065074e-06 2.162855e-06 0.00075353496 0.00015179401 0.0022820635 0.00047283832 8.312744e-05 0.00022691039
0.00011403841 0.00064887217 0.00016394506 7.6906035e-05

exp_avg f4 [20, 5]
00000000: 8714 4db6 c355 9db4 f483 ddb8 222a feb7
00000010: 7e1a bf36 c448 afb8 48d5 b137 f1ac 24b9
00000020: a62d a4b8 d4c1 98b8 f1e0 2ab5 f5ca 65b5
00000030: 675c 3034 ed81 0ab5 b714 00b5 c302 d2b9
00000040: 8f34 80b9 246b cf3a 7f14 6b39 0215 0739
00000050: 3b8c ceb7 7cdb 98b6 7451 8437 2af0 9eb7
00000060: 9324 a5b7 fffe 613a 01f2 2fb9 9c37 903a
00000070: 06a6 1e3a b220 143a 82c4 44b6 77f1 db34
00000080: 3652 a6b6 a062 35b6 7e2c 1ab6 2708 c23a
00000090: 4d42 e7b2 8031 903a 1621 ba3a 143a cd3a
000000a0: 785f 44b6 3e21 30b6 9736 7f37 7050 1436
000000b0: 0351 7435 26be 23b6 e0f3 e9b3 8bd2 dab5
000000c0: b538 0db6 cb4f 08b6 2d8b 45b6 7320 2b35
000000d0: e87b 1336 3689 a136 020e 5634 1a28 1534
000000e0: 11a5 7fb3 bf75 b134 79ff 0033 0cd1 0634
000000f0: d7db 01b4 e203 c1b3 fb68 70b3 08ac d2b3
00000100: 7041 c4b3 e598 3fb7 0ed5 3cb7 5085 8a38
00000110: dd31 b036 4033 a536 6c9b 58b6 db4c a2b4
00000120: 10ba 82b5 9884 38b6 0ee8 34b6 23ca caba
00000130: af19 90b8 4f13 7ebb 92cf 43bb fd94 07bb
00000140: f6ef 3538 b569 c938 8290 0cba 6f8c 7db9
00000150: f8de 05b9 a64e 56b7 c9e7 59b8 414a 063a
00000160: 2d1f efb8 2399 88b8 c568 8d3b 4d2a fa39
00000170: 5eac 32ba 72a4 0eba f583 4e3a 99eb 54bb
00000180: a4e4 1db9 81bc 21bb 143e 29bb 9edf 2cbb
-3.055933e-06 -2.930593e-07 -0.000105626794 -3.029878e-05 5.6953277e-06 -8.358204e-05 2.1199361e-05 -0.00015704684
-7.828632e-05 -7.284028e-05 -6.365727e-07 -8.560449e-07 1.6424893e-07 -5.1598073e-07 -4.771386e-07 -0.0004005638
-0.00024453222 0.0015824777 0.00022418982 0.0001288243 -2.4622414e-05 -4.5555043e-06 1.5773556e-05 -1.8946903e-05
-1.9686564e-05 0.0008621066 -0.00016779454 0.0011002901 0.0006051961 0.0005650624 -2.9320659e-06 4.0967618e-07
-4.956756e-06 -2.702851e-06 -2.2973686e-06 0.0014803455 -2.692209e-08 0.001100108 0.0014200534 0.0015657567
-2.9261846e-06 -2.6245393e-06 1.5211895e-05 2.210054e-06 9.101497e-07 -2.4399574e-06 -1.08942686e-07 -1.6303542e-06
-2.1043645e-06 -2.0312025e-06 -2.9436299e-06 6.3749684e-07 2.197683e-06 4.8141474e-06 1.9935399e-07 1.3891295e-07
-5.952194e-08 3.305449e-07 3.0034673e-08 1.2555773e-07 -1.2094038e-07 -8.987969e-08 -5.5974834e-08 -9.810179e-08
-9.138864e-08 -1.1420086e-05 -1.1255279e-05 6.605184e-05 5.2510136e-06 4.9233495e-06 -3.2276976e-06 -3.023077e-07
-9.739906e-07 -2.7495316e-06 -2.6957164e-06 -0.0015471618 -6.871239e-05 -0.0038768833 -0.002987836 -0.002068817
4.3377244e-05 9.604116e-05 -0.00053621095 -0.00024180276 -0.00012766931 -1.2773706e-05 -5.19527e-05 0.0005122759
-0.00011402215 -6.513509e-05 0.004315468 0.00047715232 -0.0006815846 -0.00054413744 0.00078779395 -0.003248906
-0.00015057862 -0.0024679007 -0.0025824355 -0.0026378403

exp_avg_sq f4 [5, 10]
00000000: 065e ca3b 6b6b 1b3c c557 1d3c 210e 1d3c
00000010: 65b7 5439 58be 9b3b fe88 cb3a a481 803c
00000020: 39b5 143b 8fe7 8139 f30d 313b 6458 383b
00000030: 4d6b 393b c642 393b 21fa 2838 247e d03a
00000040: e7bc 103a a752 b33b 6abb 7a3a c657 b639
00000050: 8efe c03c ae3f 193d 531f 1b3d c9d6 1a3d
00000060: 78f9 423a 3078 933c 5d2e ca3b 1d24 7a3d
00000070: 73df 0b3c 2036 693a cada 083f 24ca 3d3f
00000080: 53af 3f3f 4a66 3f3f b0dc 713c 9193 c83e
00000090: c406 fb3d 54f3 a13f 2b1f 723e f2b6 b83d
000000a0: dfe3 8939 6049 cb39 3945 cd39 96f8 cc39
000000b0: 4168 2937 3cef 5239 56fc 8a38 a19d 283a
000000c0: 297c 0039 1618 4c38
0.0061757592 0.00948606 0.009603445 0.009585888 0.00020286215 0.0047529154 0.0015528498 0.015686817
0.0022691025 0.00024777322 0.002701637 0.0028128857 0.0028292716 0.002826856 4.0287272e-05 0.0015906733
0.00055213127 0.0054724994 0.000956467 0.0003477914 0.023558881 0.037414245 0.03787167 0.03780249
0.00074376864 0.018001646 0.0061700777 0.061069597 0.008537161 0.000889631 0.53458846 0.7413657
0.748769 0.74765456 0.014762089 0.39175084 0.1225715 1.2652383 0.23644702 0.09019269
0.00026300453 0.00038773846 0.00039152222 0.00039095123 1.00974585e-05 0.00020116282 6.627354e-05 0.000643218
0.00012253285 4.8659822e-05

exp_avg f4 [5, 10]
00000000: a915 ec3b 37e6 55bd 8f0f 57bd c3e6 56bd
00000010: fde0 793c 6156 bf3c a5c5 ba3b 3b36 71bd
00000020: 84de c7bc 7f24 d4bb 418d 583c a9b8 33bc
00000030: 0d82 34bc 8066 34bc 23d6 183b 8d43 41bb
00000040: 4bf6 033b 4abb c6bc dd8d 3cbc 0d4c ccbb
00000050: 8a3f 06bb e69f b6bc 54bb b6bc ccb7 b6bc
00000060: c985 653a 63ea 7abb 2e73 2e3b 0ace 9cbc
00000070: d824 8dbb bddf a0bb 9d2e 82bd 6718 3f3d
00000080: b30d 3d3d 2555 3d3d 2bba dd3c 1834 b93c
00000090: 556a d9bc a193 c23d 8c4b 19bd db1f 2f3c
000000a0: 18e9 3bb9 92d5 03bb 2b80 04bb c968 04bb
000000b0: 4798 2a3a 32f2 553b 73af 1839 73f3 0ebb
000000c0: 1d45 dcb9 759a 893a
0.0072047305 -0.052221503 -0.052505072 -0.052466165 0.015251395 0.023356618 0.0056998306 -0.05888961
-0.024398096 -0.0064740772 0.013217271 -0.010969319 -0.011017335 -0.011010766 0.0023320995 -0.0029489726
0.0020135816 -0.024259228 -0.011508432 -0.006234652 -0.002048465 -0.022293042 -0.022306122 -0.022304438
0.0008755592 -0.0038286678 0.0026618945 -0.019141216 -0.0043073706 -0.004909484 -0.06356547 0.04665413
0.046155643 0.04622378 0.02706631 0.022607848 -0.02653996 0.09500814 -0.037425563 0.010688747
-0.00017920544 -0.0020116311 -0.0020217996 -0.0020204058 0.00065076764 0.003264558 0.0001456121 -0.0021812588
-0.00042013163 0.0010498302

exp_avg_sq f4 [20]
00000000: e41e a037 87ad 4f39 6065 4539 db70 3339
00000010: 50ba e833 889c 293b 8254 a335 9cd0 c138
00000020: 0b1e 2335 6b2c 2337 54d8 8534 fa3c 4634
00000030: 7abc fe39 3f63 d936 0754 8432 5ae6 083b
00000040: 7f91 8e39 2bb6 3f37 d7c2 163b 29f5 2a3a
1.908787e-05 0.00019805702 0.00018825149 0.00017112812 1.0837232e-07 0.0025880653 1.2169041e-06 9.241814e-05
6.076595e-07 9.725899e-06 2.493058e-07 1.846237e-07 0.0004858708 6.4786577e-06 1.5405034e-08 0.0020889253
0.00027192754 1.1426901e-05 0.0023004317 0.0006521517

exp_avg f4 [20]
00000000: 3090 deb8 41c9 24b9 e8c6 6237 f836 d03a
00000010: 6d52 8537 fb60 903a 9a14 a5b6 cb0c c23a
00000020: 4f19 8037 5016 f3b5 2961 1736 c1ec a834
00000030: c222 f835 dd08 8b38 71af 88b5 3190 7ebb
00000040: 94ad 0cba 46d6 093a 9f0c beba 4aae 21bb
-0.00010612642 -0.00015715232 1.3516961e-05 0.0015885523 1.5893218e-05 0.001101523 -4.9197815e-06 0.0014804838
1.5270574e-05 -1.8111405e-06 2.2557308e-06 3.14647e-07 1.8487556e-06 6.6296874e-05 -1.018385e-06 -0.003884327
-0.00053664413 0.00052580645 -0.0014499611 -0.0024670535

exp_avg_sq f4 [5]
00000000: e650 813c 9c44 b53b c0b8 7b3d 6e52 a43f
00000010: 9ba2 2b3a
0.015785646 0.0055318605 0.06145549 1.2837656 0.00065473624

exp_avg f4 [5]
00000000: 459e 74bd f68b c6bc 77f4 a5bc e9ab e03d
00000010: dc8e f1ba
-0.05972125 -0.02423666 -0.020258171 0.10970289 -0.0018429416

exp_avg_sq f4 [20, 1]
00000000: 373c e232 9823 6f31 5d0e 0a2c a9ae d830
00000010: 17f1 1b3e 0bdf 0233 4edd 232d 134e ad28
00000020: ff23 3e2d eccf 5032 1c9f 912e a91b 862a
00000030: cc64 f526 508d 2129 ab5b 1f2f cfbc 8b31
00000040: 1352 3d37 0249 a133 4238 4535 cead 9936
2.6337245e-08 3.479931e-09 1.9618953e-12 1.576571e-09 0.15228687 3.047084e-08 9.314617e-12 1.9240718e-14
1.0808242e-11 1.2154469e-08 6.6221e-11 2.3822375e-13 1.7027611e-15 3.587175e-14 1.4493533e-10 4.0668975e-09
1.1284387e-05 7.510427e-08 7.3470085e-07 4.579989e-06

exp_avg f4 [20, 1]
00000000: 2723 d933 e12d 0ca5 d002 8021 b04e 93a3
00000010: 6c99 0538 84d0 4a31 e2fd 171f 60fc 7f1d
00000020: 8d19 191f 7bc5 1da5 6a32 fcb1 f01d de9a
00000030: 7c3c b79a ddfc 1b9c f5c9 ad9b 95a8 d933
00000040: 502d ef38 3555 4a37 b44a 0338 bb17 bfb6
1.0111244e-07 -1.2158609e-16 8.674362e-19 -1.5971097e-17 3.1852556e-05 2.9513396e-09 3.21855e-20 3.3879444e-21
3.2420145e-20 -1.3684488e-16 -7.3398967e-09 -9.1865415e-23 -7.5784744e-23 -5.1612016e-22 -2.875096e-22 1.0135515e-07
0.00011404848 1.2059977e-05 3.1302407e-05 -5.695006e-06
